model/model for deploy/Kucingku_model.tflite (tflite, 202272 bytes, 10 tensors)

model_2/embedding_12/embedding_lookup f4 [2, 50]
00000000: c94e 203d 8c7e c0bc 08fd dc3c 7f7e e03c
00000010: d052 2c3d f56e 0dbd 60c1 683a e6ac 2b3d
00000020: bd54 b8bc 1272 513c 3ebd 0d3d cde3 123c
00000030: 2a35 ff3c 1dd4 15bd e297 aebc ee5a 43bb
00000040: 2112 9fbc 2f08 fcba 0eb4 83bc ad60 72bc
00000050: f6aa 5dbc 48a5 23bd 4f95 42bd 5118 93ba
00000060: c2fd edbc 720f c7bb cbfb 09bd 11d6 b6bc
00000070: 4af4 40bd 7354 b03c 73d7 17bd 036c ce3c
00000080: a57c 263c fe5c 2f3d 8480 3cbd fe6b 173c
00000090: 2c05 ac3c 46ce d63c a4af c53c 84dc d3bc
000000a0: 586d aebc 2175 1abd a8c6 be3c 8441 b43c
000000b0: 850a 69bc ddda abbc 79e6 82bc fea6 3e3d
000000c0: e353 353d b51f 283c 5405 103c 2e27 fbbc
000000d0: 2872 a9bc d43d 563c 1baf 593d 0cd7 9abc
000000e0: 0d16 43bd 1e6f 22bd ccac a73c 7d11 17bd
000000f0: 2bd2 2a3d a696 193d 5f01 2dbb c4a3 083b
00000100: e1ff d33c 67f5 aebc ae6d 1bbd 18cf 823d
00000110: 3e68 f5bc 3ebb df3c aa1b e33c a7ae 313d
00000120: bbb5 133d c898 693c 184b 8b3c 3ccb 383d
00000130: 6f69 5dbc e95e 72bc 5227 46bd 1d25 e0bb
00000140: 3d4a c6bc fb8f 53bd c404 17bd e192 d53c
00000150: decd 4fbd a0dc c239 f0d1 06bd 73e1 ef3c
00000160: 9fc2 4d3b 64e9 59bb 775c 2abb 5d36 78bb
00000170: 4720 3cbb 15eb 44bb ef87 0fbd d9af 613c
00000180: 28dc ed3b 1df1 5f3b 3dae 493d 264c a23c
0.039137635 -0.023497842 0.026976123 0.027404068 0.042071164 -0.034529645 0.0008878913 0.041912936
-0.022501344 0.012783544 0.034604304 0.008965445 0.03115328 -0.03657924 -0.021312658 -0.0029808837
-0.019417824 -0.0019228513 -0.016077068 -0.014793557 -0.01352953 -0.039952546 -0.047505673 -0.0011222457
-0.029051665 -0.0060748393 -0.033687394 -0.022318872 -0.047107972 0.021524644 -0.037070703 0.025197988
0.0101615535 0.042813294 -0.046021 0.009242056 0.02099856 0.026221406 0.024131604 -0.025861986
-0.021292374 -0.03770936 0.023288086 0.022003897 -0.014223699 -0.020978386 -0.015979039 0.046545975
0.044269454 0.010261466 0.008790333 -0.03065833 -0.020684317 0.013076264 0.05314551 -0.01890137
-0.04762845 -0.03965675 0.020468138 -0.036881912 0.041704338 0.037497185 -0.0026398522 0.0020849565
0.025878849 -0.021357251 -0.037946396 0.06387156 -0.029956933 0.027310964 0.027723152 0.043379452
0.036061984 0.014257617 0.01700358 0.045115694 -0.013513907 -0.014793136 -0.048377343 -0.0068403617
-0.024205321 -0.051650982 -0.03686978 0.026071014 -0.05073344 0.00037166942 -0.032915056 0.029282307
0.003139652 -0.0033250684 -0.0025995055 -0.00378742 -0.0028705762 -0.0030047346 -0.035041746 0.0137748355
0.0072589107 0.0034170814 0.049238432 0.019811701

model_2/embedding_13/embedding_lookup f4 [29, 50]
00000000: 406c 143c 411c 0c3d d041 edbb c602 eb3c
00000010: 06b0 f23c 416e 233d c07a d1bc 5aad c03c
00000020: 2df8 103d 361f 22bd 6803 c8bb 4079 deba
00000030: 94b4 8ebc 4c59 333c 4785 313d 972f 193d
00000040: 0010 5ebc 0d30 9cbc 992b 2f3d 3003 15bb
00000050: 68d5 45bc a001 363b 73a4 b7bc 7aa4 a63c
00000060: b092 35bd e4ea 613c 972a 42bd 9766 0a3d
00000070: 02bc b83c da14 3cbd 1a85 bbbc 190d 1d3d
00000080: 30a4 103b bdb0 33bd c0fa abbc cc2e 723c
00000090: 4e6e ca3c d0c0 3fbb cdcb d5bc fabe c13c
000000a0: 1d3c 403d 287d 48bc 3074 d9bb e046 febc
000000b0: c038 3a3a d610 02bd 47e6 d4bc b097 f1bb
000000c0: 4c19 333c 342d 2abc c291 a83c 07ab f7bc
000000d0: fabb 00bd 9ddf 2abd 1878 71bc 020f fe3c
000000e0: 6e5f f43c e63d a73c 2645 dd3c c05d 66bc
000000f0: 217f 0d3d 1a8e d13c 3d2e 1d3d 8051 a1bc
00000100: a07f 253b a0ba f3bc 8072 bfbc 63f7 123d
00000110: a086 23bd c009 18bc cd51 28bd 00f4 6038
00000120: 82a1 853c d873 52bc 0072 ff3a 03ab 183d
00000130: f4b1 01bc d3b2 aebc e366 043d 93e9 3a3d
00000140: 9361 46bd 512f 083d 2720 4c3d 6895 f33b
00000150: b4eb 483c 33b4 30bd 46fe e13c 02c8 f53c
00000160: e960 113d 173c 40bd 00cd 5ab9 b454 673c
00000170: 67da 99bc 27fc 223d 0058 443a c791 a6bc
00000180: 001d 7cb9 988d 363c c7d4 2e3d 802f 883b
00000190: 7259 5fbc 4a38 1f3d 46f1 febc e90c 34bd
000001a0: 1f22 363d 6282 49bd 737a e6bc b4be aeba
000001b0: c294 c73b 670a 113d ee21 17bd 04e1 b9bc
000001c0: 087f 133d ccb2 24bd 63b1 cabc 930b 033d
000001d0: bb5c 49bd b8c6 2d3d 6360 2abc f89b d9bc
000001e0: 8f9a 6cbc 39f6 60bc 7ef3 c43c bae0 7d3b
000001f0: d4e4 5dbc fba4 8e3a 6d2f 263d 270c 65bc
00000200: 7a05 163d a8d5 033d 461d 20bd 1db1 3abd
00000210: 8edc 9e3c f3cd 11bd 1678 20bd 630b e2bc
00000220: 524f 7cbc 7653 32bd 2968 b3bc a983 623b
00000230: a37d 253d bfab 29bd 63e6 bbbb 8bf6 1a3c
00000240: 06cf 86bc cb53 293d 8d4e 2e3d 3d1f dd3b
00000250: 1b24 213d 5f2b 693c db0a f93b 5590 493c
00000260: 6846 81bc e75e 7d3c 634d 3cbd e792 9f3c
00000270: 8dd6 caba e11a ec3c 903b aabc 8506 033c
00000280: fd81 44bd 0ac1 b03b 2f81 dcbb 9073 ae3b
00000290: 22ab 47bd 1c6b 083d 63a4 d33c 2279 cbbc
000002a0: 1044 f03c ad79 82bc f72f 48bc 50c7 373d
000002b0: 0d01 e4bc 39a8 46bb 0e0a 47bd b35d 39bd
000002c0: 1a83 fabc d809 9b3c 7246 9a3c d334 1cbd
000002d0: 9f9f 373d 11c5 7bbc 120b b2bc ebdf 0ebd
000002e0: 2a7d 0abd 63b3 343d ff6f 963c fc7e 0b3d
000002f0: d70f 413d 63f7 3c3d c324 883c ee06 1b3b
00000300: a43c aebc f078 383d 4a5f 78bc fe9e 843c
00000310: 8ad6 1cbd 246f b2bc ab46 ac3c 533d 3abd
00000320: 4af5 49bd a7c3 cfbc d3e2 3d3d b306 b7bc
00000330: 1880 babb da44 d1bc 00ec 2fbc 666d 1fbd
00000340: e7b4 283d 70d3 1abd e01f c6bc e230 bd3c
00000350: e345 073d c2bf e43c 4c22 32bc 6efa fa3c
00000360: 86c2 85bc d1a5 0b3d 4072 003c 80d8 d3bb
00000370: e716 e7bc c078 fdbc 77a7 2f3d 6087 02bb
00000380: 216a 343d 30f7 bc3b 0661 c13c 7ae1 c03c
00000390: 1133 4c3d 3324 c0bc 00fe 72bb 68c7 993b
000003a0: 4399 143d 50f4 953b 0e04 ee3c fa58 e1bc
000003b0: 681e 823b 3451 59bc 4c9b 0cbc b4b0 3e3c
000003c0: 59be 053d 6d31 a4bc f290 f93c 5085 25bd
000003d0: b47b 6cbc fa38 f63c 4903 443d 5a24 d33c
000003e0: a041 353b 60b4 19bd 5344 293d 7a59 d0bc
000003f0: 306c 5cbb 29d0 403d b073 8ebb a72f cfbc
0.009059012 0.034206633 -0.0072405115 0.028687846 0.02962495 0.03990007 -0.025571227 0.02352016
0.03539293 -0.039580546 -0.0061039217 -0.0016973391 -0.01742009 0.010946583 0.043339994 0.0373989
-0.013553619 -0.019065881 0.042766187 -0.0022737496 -0.012074806 0.0027771965 -0.022417283 0.0203421
-0.044329345 0.013788912 -0.047403898 0.033789244 0.022550587 -0.045918323 -0.022890616 0.03834257
0.002207052 -0.043869723 -0.02099359 0.014781665 0.0247108 -0.0029259212 -0.026098156 0.023650635
0.04693233 -0.012236871 -0.006636165 -0.031039655 0.00071037933 -0.031754337 -0.025988711 -0.007372819
0.010931324 -0.010386754 0.020577315 -0.03023292 -0.03142927 -0.04171716 -0.014738105 0.031013016
0.02983066 0.020415258 0.027010512 -0.014060438 0.034545068 0.025580455 0.038374174 -0.019692183
0.0025253072 -0.029752076 -0.023370028 0.035880458 -0.03992331 -0.009279668 -0.041093636 5.3633004e-05
0.016312364 -0.012845002 0.0019488931 0.037272464 -0.0079159625 -0.021325504 0.032324683 0.04563291
-0.048432898 0.03324825 0.04983535 0.007433582 0.012263227 -0.0431406 0.027587067 0.030002598
0.03549281 -0.046932306 -0.00020866469 0.014119316 -0.0187809 0.039791252 0.00074899197 -0.020333184
-0.00024043396 0.011142157 0.04268339 0.004156053 -0.013632165 0.03887204 -0.031120908 -0.043957625
0.044466134 -0.04919661 -0.02813456 -0.001333198 0.0060907314 0.03541031 -0.036897592 -0.022690304
0.03600982 -0.040209576 -0.024742788 0.03199346 -0.0491607 0.04242584 -0.010398957 -0.02656363
-0.0144411465 -0.013730579 0.024041887 0.0038738684 -0.013543326 0.0010882908 0.040572572 -0.013979948
0.036626317 0.03218618 -0.039090417 -0.045579065 0.019392278 -0.0355968 -0.039177023 -0.02759332
-0.015399771 -0.043536626 -0.021900253 0.003456334 0.04040302 -0.041423555 -0.0057342513 0.0094581945
-0.016456138 0.041339677 0.04255538 0.0067481087 0.039341073 0.014231532 0.007600171 0.012302478
-0.015780643 0.015464521 -0.04597224 0.019479228 -0.0015475318 0.02882141 -0.020780355 0.00799716
-0.04797553 0.005394106 -0.006729267 0.0053238347 -0.04874719 0.033305272 0.025835222 -0.024838034
0.02932933 -0.01592716 -0.012218467 0.044867814 -0.027832532 -0.003031267 -0.048593573 -0.045255374
-0.030580092 0.018925592 0.018832419 -0.038136315 0.04482996 -0.0153668085 -0.021733794 -0.034881514
-0.033810772 0.04411639 0.01836395 0.03405665 0.047134247 0.046134364 0.016619092 0.0023655253
-0.02126915 0.04503721 -0.015159437 0.016189095 -0.038290538 -0.021781512 0.02102979 -0.04546864
-0.04930619 -0.025361849 0.046358895 -0.022342062 -0.0056915395 -0.025545526 -0.010737419 -0.03892269
0.041188147 -0.0377993 -0.024185121 0.023094598 0.033025634 0.027923469 -0.010872435 0.030636992
-0.016328108 0.03409368 0.007839739 -0.006465018 -0.028209163 -0.030941367 0.042884316 -0.0019917116
0.044046525 0.0057667717 0.023605835 0.023545016 0.04985339 -0.023454761 -0.0037077665 0.0046929605
0.036278974 0.0045762435 0.029054668 -0.027508248 0.00397091 -0.013263989 -0.008581948 0.011638809
0.032652233 -0.0200431 0.030464623 -0.04041034 -0.01443379 0.030056465 0.047854695 0.02577417
0.0027657524 -0.037525535 0.041324925 -0.02543329 -0.003363382 0.047073517 -0.004347287 -0.025291277

model_2/embedding_17/embedding_lookup f4 [3, 50]
00000000: 3f2b 6dbd d079 223c 7b9e 543d 2a26 563d
00000010: 754e a0bb d554 263d 21ad 79bc 3042 ebbc
00000020: 942a e938 604f a4ba 94c9 103d c088 823a
00000030: f5cd c6bc 59c7 2fbd 8b0a 363d e976 0abc
00000040: 6e39 113c 2bb1 8bbb 705c 543d cd98 9abc
00000050: 0df2 33bd add4 0bbd 0e38 06bd e097 7a3c
00000060: 247e d63c 4286 d6bc e5b9 b5bb 56cb b5bc
00000070: 7f15 373c 9ad5 b5bb 39c6 8fb9 7aba 0bbd
00000080: c566 52bc 4356 b8bc c441 903c 03f1 31bd
00000090: 5831 2ebd 19b0 99bb 86ff 83bc 01f4 f63c
000000a0: 8687 c73c 7b49 20bd e61b 14bc b92e 1cbc
000000b0: eeba 82bd 7673 403d 9420 0bbd a33e edbb
000000c0: 4d32 20bd 81b7 273d 35d5 413a fa91 44bd
000000d0: 099b 1bbd 8875 29bd 4136 003d 69c1 04bc
000000e0: 316c eeba 3f5d a43c d0b4 353d 2949 2abd
000000f0: 979f ed3c cde6 9f3c 07de 91bc d689 aabc
00000100: 394d 3dbd 73fe 443d 72c5 873c 879a 073d
00000110: a20d 15bd be25 08bd 3ed9 2dbd e9a5 b33c
00000120: d9cb ebbb d251 d23c 52b5 ecbb 4f79 153d
00000130: b768 ed3c d18e bebc c237 98bc e528 db3c
00000140: d6d5 34bd 8ce8 703c 79c7 653c ca7f 233c
00000150: fff6 f13c 825d dab9 d806 27bd ad7c d43b
00000160: b2e7 313b 0fda f4bc 01bf 283d 2e26 293b
00000170: b888 2fbd c7e9 cebc 9c6e 55bd 325f da3c
00000180: 786a 38bd cf1b 61bb f9cc 273d 4044 08bd
00000190: 808a 3bbc 4d77 bcbc 9805 50bc 4638 d83c
000001a0: e8c5 02bc 6228 a33c 6092 d63a f3b0 b6bc
000001b0: 1c59 6d3c 2067 f7bc 3aaf 3fbd f40d 713c
000001c0: 300a 10bb 3341 403d a0b1 32bd 20ca eabc
000001d0: d23b ad3c 4e5c a63c e665 c43c 1afa 17bd
000001e0: 504e c73b d3c8 dbbc 5d67 493d 0d2e 48bd
000001f0: c228 803c 005a 25b9 da35 de3c 1278 cc3c
00000200: 5041 e83b 32d0 863c 3179 043d 12c0 943c
00000210: 17e4 013d 0c6e 3d3c 685e aa3b a8e1 163c
00000220: 03d4 1dbd a89d 1a3c 933d 3e3d 20ea 4abd
00000230: 7ae7 e6bc 0c7b 2cbc 442d 05bd 06e4 973c
00000240: e79d 4abd 671b edbc b007 34bd 37ff 243d
00000250: 4009 d5bc 0ca6 1bbc
-0.05790257 0.009916738 0.05190895 0.05228249 -0.0048921653 0.040608246 -0.015239031 -0.028718084
0.000111182366 -0.0012535863 0.03534849 0.0009958968 -0.02426813 -0.042914722 0.04444365 -0.008451202
0.00886379 -0.0042630634 0.051845968 -0.01887169 -0.04393201 -0.03413837 -0.0327683 0.015294999
0.026183195 -0.026187066 -0.005545842 -0.022191685 0.011174559 -0.005549145 -0.00027422773 -0.034113385
-0.012841885 -0.02250207 0.017609484 -0.043442737 -0.042527527 -0.004690182 -0.016113054 0.030145647
0.024356615 -0.039132576 -0.009039855 -0.009532624 -0.0638331 0.046985112 -0.033966616 -0.007240133
-0.03911047 0.040946487 0.0007394136 -0.047990777 -0.03798965 -0.041371852 0.03130174 -0.008102753
-0.0018190203 0.020063994 0.04436189 -0.041573677 0.029006762 0.019519234 -0.017806066 -0.020817678
-0.046216223 0.048094224 0.016573641 0.033106353 -0.036389954 -0.03323912 -0.042443506 0.021929698
-0.0071959314 0.02567378 -0.0072237635 0.036492642 0.028980596 -0.02326146 -0.018581275 0.026752898
-0.044149242 0.014703881 0.014024609 0.009979198 0.029536722 -0.0004164987 -0.04077801 0.006484589
0.0027146158 -0.029889135 0.04119778 0.002581011 -0.042854995 -0.025257958 -0.05210744 0.02665672
-0.04502341 -0.003434885 0.04096696 -0.033268213 -0.011446595 -0.023006106 -0.012696646 0.02639402
-0.007981755 0.019916717 0.0016370527 -0.022301173 0.014486577 -0.030200541 -0.04679797 0.014712799
-0.0021978728 0.04693718 -0.043626428 -0.028660834 0.021146689 0.020307686 0.02397437 -0.03710375
0.0060823336 -0.026829159 0.04917084 -0.048872042 0.015644435 -0.00015769154 0.027125288 0.024959598
0.007087864 0.016456697 0.03234214 0.018157993 0.031711664 0.011561882 0.0051992424 0.009209074
-0.03853227 0.009437002 0.04644544 -0.049539685 -0.028186549 -0.010527384 -0.03251387 0.018541347
-0.049466994 -0.02894373 -0.043952644 0.040282454 -0.026005387 -0.009500038

model_2/embedding_16/embedding_lookup f4 [4, 50]
00000000: f1b9 913c f470 c73b 8441 ba3c 652a c7bc
00000010: 301c acbb 1ce4 f93c 9e5e 653d e97d 723b
00000020: da87 efbb f001 82bc a1dc 373d f2e9 2e3d
00000030: 06ea d73c b025 2cbc cbcb 13bd 4d88 30bd
00000040: dbf4 20bc 8867 12bb 1799 153d 0b34 e9bc
00000050: 1a66 0d3d a7bb 1bbc e197 1a3c 0189 c03c
00000060: c25f edbc a5fd 683c e9c0 d63c 25fd 963b
00000070: 19c6 00bd d140 1c3d 1de9 cf3c e93b f7bc
00000080: 4cf6 62bc ac50 ee3a 5740 45bd dc2b 9cbc
00000090: 6bc1 3b3c 7456 d03b a153 4cbb bcd1 513c
000000a0: e029 d7bc 1e55 29bc 29be ec3c d87c 9a3c
000000b0: 7eb5 063c 3a22 d839 1ee2 e43c 1003 093d
000000c0: 394a 17bb 9907 47bc 8853 a8bb 7dee 4c3b
000000d0: b296 ecbc 32c6 e1bc 90d9 36bd 4150 21bc
000000e0: c372 39bd 7945 37bc eec0 a53c bcb9 11bc
000000f0: 788f 06bd 17b4 49bd 7b0e 04bd 9ccf 403d
00000100: c585 ccbb 7465 9e3a a20b 87bb 15bc 483b
00000110: a96b dd3c 03d2 ce3c 85db 173d 9422 efbb
00000120: 7b0a aabb da84 19bd 3c9c 1b3d 5a19 32bd
00000130: 43a1 40bd d49f 1fbd 906d 55bd 6c33 cfbc
00000140: de0e a43c e7b6 053d 161b 06bb 3b95 08bd
00000150: fbbd 8bbb bf7b ef3c 4aca 3ebc a7b8 b73c
00000160: 9f0e 393d 1191 d63c 360d 413d ad56 f23b
00000170: e300 2d3d 6d5f 2bbc 2a60 a83c 256f 803c
00000180: 87a5 393c f7b7 aebb fcfe 423d 6e68 f23c
00000190: ac87 3a3d b99f 4ebc f2f5 403d 8851 0fbd
000001a0: 5ee5 0e3d 0fb7 0d3d 03cc 2abc 1b47 623c
000001b0: 6bca 783c 4ece aebc 0fb3 123d 7fa9 fb3c
000001c0: b497 323d 499a 4a3d 432c 1cbd bacf 62bc
000001d0: 6abf fdbc 441c 17bd 47d1 8fbc 3f5a 88bc
000001e0: b7bb fabb 980a 99bc 4747 463d 312d 20bd
000001f0: cf4e 31bd 8d21 21bd 6db1 3bbc 707a 3dbd
00000200: 6b7a c0bb 058d 11bd 8721 983c a845 21bd
00000210: 9753 36bc 9f36 923c 449a 9bbc ce2a 80bb
00000220: d90d aebc 79a6 babc a2e8 183d 3bcd 1dbc
00000230: ce4b 14bd 358a 12bd def5 c0bc f53d 42bd
00000240: 6ce2 a33c daa3 10bd 9c73 e43b 40d9 8cbc
00000250: b51b 36bc 6a25 383d 4234 52bc 49e3 86bc
00000260: bc30 2c3a 20fc 9ebc 6f05 35bd e5b1 feba
00000270: fbbc eaba c8c1 5c3c 04e1 083d f45b 3bbc
00000280: 5992 d93b 9691 133d 9df2 07bb 71df efbc
00000290: 13d6 1bbd 6472 12bd 2e93 a63c 5900 c4bb
000002a0: 0ce3 053b ee55 9c3a 52cc 0fbd 5590 553d
000002b0: 9c9b a7bc 69f2 48bc 0858 49bd 62c8 ba3b
000002c0: dd5d d1bc db51 d7bc 4c6b a83c dd47 02bc
000002d0: 5d04 43bd 9f60 ad3c bb0b 093d b1f1 1d3d
000002e0: 4fd8 06bc e5b9 323d 5288 c73c 0172 843c
000002f0: 5cf4 31bb 73a0 04bd 4ee2 d4bc 06c8 0f3d
00000300: 7291 393d b68b 1a3c 2c54 24bd badf aa39
00000310: 7dee e83b 9c9e ae3c 2b87 133d 404d 333d
0.01778886 0.006086463 0.022736318 -0.024312207 -0.0052523836 0.030504279 0.055998437 0.0037001318
-0.007309896 -0.015870064 0.044888142 0.042703576 0.026356708 -0.010507032 -0.036083024 -0.043098737
-0.009824003 -0.0022339541 0.03652295 -0.028467199 0.0345212 -0.009505189 0.009435625 0.023502829
-0.028976325 0.01422063 0.026215034 0.004607814 -0.03143892 0.03814775 0.025379712 -0.030179935
-0.013852667 0.0018182001 -0.048157062 -0.019063883 0.011459689 0.0063579623 -0.0031177776 0.012806352
-0.026265085 -0.010335235 0.02889927 0.018858358 0.008221982 0.0004122423 0.027939852 0.033450186
-0.0023085012 -0.0121478075 -0.005136911 0.003127008 -0.02888045 -0.027560327 -0.044641078 -0.009845794
-0.04527546 -0.011185997 0.020233598 -0.00889438 -0.032851666 -0.049244013 -0.032240372 0.04707299
-0.0062415325 0.0012084679 -0.00412126 0.0030629684 0.027028875 0.025246626 0.037074585 -0.007297823
-0.0051892377 -0.037480213 0.037990794 -0.04348121 -0.04702879 -0.038970783 -0.05210644 -0.025293075
0.02002662 0.032645132 -0.0020462922 -0.033345442 -0.004264591 0.029233811 -0.011644909 0.022426916
0.04517996 0.02619222 0.04713174 0.0073955865 0.042237174 -0.010459763 0.020553667 0.015677998
0.011330969 -0.005331989 0.047606453 0.029590812 0.045539543 -0.012611323 0.04710955 -0.034989864
0.03488671 0.034598406 -0.010424617 0.013810898 0.015184979 -0.021338608 0.035815295 0.03072047
0.043601707 0.049463544 -0.03812815 -0.013843471 -0.030975062 -0.03689219 -0.017555846 -0.016644595
-0.007651772 -0.01868181 0.04840782 -0.039105598 -0.04328805 -0.039338637 -0.011455876 -0.046259344
-0.0058739684 -0.035534877 0.018570675 -0.03937307 -0.011128328 0.017848311 -0.018994458 -0.0039113527
-0.021246837 -0.022784458 0.03733123 -0.00963145 -0.036205105 -0.035776336 -0.023554739 -0.047422368
0.020005427 -0.03531251 0.0069717895 -0.017193437 -0.011115004 0.044957556 -0.012829842 -0.0164658
0.0006568541 -0.019407332 -0.044194635 -0.0019431679 -0.0017909104 0.013473935 0.033417717 -0.011435498
0.0066397605 0.036027513 -0.0020743974 -0.02928135 -0.038045954 -0.035753623 0.020333853 -0.0059814868
0.002042952 0.0011927465 -0.035106964 0.0521396 -0.020459943 -0.012264826 -0.04915622 0.005700157
-0.025557453 -0.026284149 0.020558976 -0.007951704 -0.047611583 0.021164237 0.033458453 0.038560573
-0.008230283 0.043634314 0.024356995 0.016167643 -0.0027153706 -0.03237958 -0.025986817 0.035102867
0.045304723 0.009432724 -0.040119335 0.00032591616 0.007108508 0.021315865 0.036017578 0.043774843

model_2/embedding_15/embedding_lookup f4 [4, 50]
00000000: 9e3e 253d 5b81 e3bc 618c 85bc a631 f9bc
00000010: 7916 163d d93e 1ebb 57c0 f7bc d6fd 403d
00000020: 61dd 17bd e562 403c b47a 4abd a098 f3bc
00000030: 90f5 19bb 04a3 703c 1f20 2dbc 0923 003d
00000040: bca0 cc3c 4c3f 70bb a93d 02bd ed17 26bc
00000050: 91ab 4dbd 80cc d33c d479 edbc 8d44 db3c
00000060: 4f78 463d 0eae 653a 4743 163c c38c ebbc
00000070: 4398 3cbc c700 833c c078 68bd 39b7 88bc
00000080: 3c77 63bd e82e 973c 4e29 243c a283 26bd
00000090: 408e d23b 0b0c 07bd 58e7 ddbb f2b2 843c
000000a0: e0cd 15bd f15d 49bd 4ee0 98bc d297 363c
000000b0: 069a 213d 471e 0b3d 6c79 84bc 5fd1 f3bc
000000c0: 53ea d0bc 8a74 ecbc 8a59 35bd e3a9 16bd
000000d0: 90e4 34bd e47e 613c c931 0e3d 1a91 01bd
000000e0: ca10 31bd 74fa 713c e8de 10bc f22a ef3c
000000f0: 60d5 3fbb d723 383d d7eb 323d cea0 e93c
00000100: 7a63 b1bc f495 313c 32dc a23c d828 0d3c
00000110: 474e 3e3d a2a8 bc3c 0019 39bd 68c4 81bb
00000120: 9a33 d8bc cd5f 203d 3a78 c0bc 0706 e7bc
00000130: 0004 373b 17cd 173d 664e fa3c 6891 8d3b
00000140: 73f1 f2bc 13ae fcbc baec c83c 1815 94bb
00000150: d3e3 183d 4e9e fe3c 1a2a ae3c a777 d6bc
00000160: 0e16 e73c 6837 6bbc 538c 9ebc 2346 143d
00000170: 309f 783b cae3 31bd 7a02 4cbd 4c5a 30bc
00000180: 9352 453d 1883 8dbb 6067 36bd aeee ae3c
00000190: d6d2 5cbc 0654 8b3c f197 c93c 9898 383b
000001a0: fcac 07bd 7365 a2bc f1c0 473d 260d 06bc
000001b0: 23ef 24bd 96b0 33bd d94e d53c 327f 053d
000001c0: fc52 413d 34c4 203d 06b9 aa3c fec9 36bd
000001d0: 23c5 62bc c775 813c 8f03 0abd 306b 9c39
000001e0: a2b1 43bd e182 98bc 62ba 5c3c fbea e7bc
000001f0: c24b f2bb 89f6 123d c9ff bcbc e47e 2bbd
00000200: 6d55 edbc c20f 04bd 1df6 8e3c 9a54 04bc
00000210: 49f2 3b3d 58fa 12bd 4126 14bc 306b 2abd
00000220: 9524 43bd 6ce3 813c fa51 16bd 5b17 e83c
00000230: 6fec 283d e407 4dbd 39b7 4cbd e4c0 42bd
00000240: ccbe 2bbd ebdc de3c 5f84 ed3b 7397 933c
00000250: 8503 ad3c c269 c1bb f296 8d3c a232 873c
00000260: 9b44 0a3d 6e55 95bc 6273 233d 5dd7 433c
00000270: 5626 383d 8caf 383c e24a e53c ab85 d23b
00000280: 6ab0 5abc 0619 10bd deae 90bc aae6 663a
00000290: 67ae 3abd 6faf 94bc 718c 0dbd 3506 7b3c
000002a0: b2c3 b23c 230f 613c 1cf6 003d f5de 7cbc
000002b0: 27a1 4dbd a2a3 4dbc a575 ab3c 3735 f0b9
000002c0: f6dd a33c 96e1 933a c590 31bc 98e3 383d
000002d0: 29ca 103d edd0 dbbc 530a 16bc 1768 143c
000002e0: d977 4ebc f391 60bc 3a6b a13c b807 653c
000002f0: d45c 3cbd 5925 413c 0553 f43c 3f66 d9bc
00000300: ed5a f4bc 0d49 273d da3a efba e11b a93c
00000310: 13d8 163d ddbb 20bd 64cb 00bd efe5 23bd
0.04034292 -0.027771642 -0.01630229 -0.030419182 0.036642525 -0.0024146347 -0.030243082 0.047117077
-0.037076358 0.011742328 -0.049433425 -0.029735863 -0.0023492314 0.014687303 -0.01056674 0.031283412
0.024978988 -0.0036658822 -0.031797085 -0.01013754 -0.050212447 0.02585435 -0.028988756 0.026766086
0.04845458 0.0008761593 0.009171314 -0.028753644 -0.011510911 0.015991582 -0.05675578 -0.01668893
-0.055533633 0.018454984 0.010019613 -0.04065288 0.006425649 -0.03297047 -0.006771963 0.016198609
-0.03657329 -0.049161855 -0.018661644 0.011144595 0.03945353 0.03396442 -0.01617118 -0.029762922
-0.02550236 -0.028864164 -0.044274844 -0.03678311 -0.044163287 0.013763163 0.034715448 -0.03163252
-0.043228902 0.014769185 -0.0088422075 0.029195283 -0.0029271469 0.044956055 0.043681946 0.02851906
-0.02165388 0.010838974 0.019880388 0.008615695 0.04646137 0.02302963 -0.045189857 -0.003960181
-0.026391793 0.039153863 -0.023494828 -0.028201116 0.0027925968 0.037060823 0.030554961 0.0043203123
-0.029656148 -0.030844724 0.024526943 -0.004519116 0.037326645 0.031081345 0.02126031 -0.026180102
0.028208759 -0.014356472 -0.019354021 0.0361997 0.003793668 -0.043430127 -0.04980705 -0.010763716
0.048174452 -0.004318606 -0.04453218 0.021354046 -0.013478002 0.017007839 0.024608584 0.0028167125
-0.033123955 -0.019823765 0.048767988 -0.008181846 -0.04026712 -0.043869577 0.026038574 0.032592006
0.04719828 0.039249614 0.02084018 -0.04462623 -0.013840946 0.01580323 -0.0336948 0.000298345
-0.047776826 -0.018617095 0.0134721715 -0.02831029 -0.007394285 0.035879645 -0.023071187 -0.04186906
-0.028971398 -0.03224159 0.01745134 -0.008076811 0.045885358 -0.035883278 -0.009042324 -0.04160613
-0.04764231 0.015855514 -0.036699273 0.02833145 0.041241106 -0.050056353 -0.049979422 -0.047547236
-0.041930005 0.027204951 0.007248446 0.018016553 0.021119842 -0.0059025 0.01728389 0.016503636
0.033756834 -0.018229213 0.03990496 0.011953202 0.044958435 0.011272322 0.027989808 0.006424626
-0.013347724 -0.035180114 -0.017661508 0.00088081753 -0.04557648 -0.01815006 -0.034557763 0.015321304
0.02182183 0.013736519 0.03148471 -0.0154340165 -0.050202515 -0.01255122 0.02093012 -0.00045816015
0.0200033 0.001128244 -0.010837738 0.045138925 0.035349045 -0.026833022 -0.009157735 0.00905802
-0.012601816 -0.013706672 0.01970445 0.013978891 -0.045986965 0.0117886895 0.029824743 -0.026538013
-0.029828513 0.04084115 -0.0018251792 0.020643177 0.03682716 -0.03924166 -0.03144397 -0.040014204

model_2/embedding_14/embedding_lookup f4 [2, 50]
00000000: 9fca 8dbc b7d6 1bbd 7c60 0b3d 7ea2 4cbd
00000010: e6f3 10bd b1bb 4cbb 3d6d 3f3d 68c0 253a
00000020: e14e 993b e720 433c ff08 a0bc 00ee 06bd
00000030: 1ed3 a3bc c1ec 47bb d8ed e13c 96f0 aabc
00000040: d910 4a3d 482a 463d 4d75 1a3d a5f9 d9bc
00000050: 0945 a5bc f023 c0bc 67f8 b5bc 447c 86bb
00000060: 7d49 23bb 2efe 5e3c 595e 8d3c 92a0 11bd
00000070: ce9f f73a 75cc 24bc 931c 0dbd 225e ffbc
00000080: 88f6 133d b152 4dbd 647f 173d 29b6 313d
00000090: 9087 0d3d 0ac7 b8bc 2a62 8e3c e3f2 d43c
000000a0: 834d 54bd 5710 343d 0b6a 073d faee e1bc
000000b0: 26c3 af3a 47d0 8ebc d4e8 bbbc 417e 293c
000000c0: eab4 173d 37f9 95bc 43c8 deb9 8ae4 fabc
000000d0: 7f87 a63c 2fe8 323d 38f8 ad3c ab51 53bc
000000e0: c29d 3a3d eade cdbc e914 ab3c 87bc 313d
000000f0: ad8d 0b3c 4ae6 a2bb 081c 803c cde9 01bd
00000100: 187e 1b3d f12f 09bd afca 633c 8ebc 163c
00000110: 1261 c63c 6cc5 f33c 320a 46bd c4f2 f7bc
00000120: 5a01 f93c 16bb 343d 4951 4a3d c049 d035
00000130: 9f90 e43c ee19 e13c a148 99bc 6630 063d
00000140: 3a26 f4bc 0e25 18bd c02c 443d 5a52 2fbd
00000150: ddc5 43bd 859f 2a3c faf1 273d 76ea 573c
00000160: ec40 4a3d 0b9f afbb 84b6 d83c f8bc af3c
00000170: 50ea 02bd 8751 393d 8907 edbc 6bb9 0dbc
00000180: 92f7 963a a327 2e3d 1b00 2fbb 7db2 383d
-0.017308531 -0.038046565 0.03402756 -0.049959652 -0.03538885 -0.0031239802 0.046735037 0.0006322921
0.0046785926 0.0119097 -0.01953554 -0.03294182 -0.01999813 -0.0030506107 0.027579233 -0.020866673
0.049332473 0.048380166 0.037709523 -0.026608298 -0.02017452 -0.023454636 -0.022213174 -0.004104169
-0.0024915629 0.013610406 0.017256903 -0.035553522 0.001889223 -0.010058512 -0.03445108 -0.031172816
0.036123782 -0.05012769 0.036986724 0.043386612 0.03455311 -0.022555847 0.017380793 0.025994724
-0.051831733 0.043960895 0.033060115 -0.027579773 0.0013409599 -0.017433299 -0.02293817 0.010345043
0.037037767 -0.018307311 -0.00042492346 -0.030626554 0.020328281 0.04367846 0.021236524 -0.012897889
0.045560606 -0.025130708 0.020883994 0.043392684 0.008517665 -0.0049713003 0.015638366 -0.03171711
0.03796205 -0.033492986 0.013903304 0.009200228 0.024216209 0.029757224 -0.048349567 -0.030267127
0.030396152 0.04412373 0.049393926 1.5518672e-06 0.027900992 0.027478185 -0.01871139 0.032761
-0.029803384 -0.037144713 0.04789424 -0.042803146 -0.04779612 0.010414009 0.04100225 0.013178458
0.04937832 -0.0053595356 0.026454218 0.021452412 -0.03196174 0.045243766 -0.028934257 -0.008650164
0.0011517873 0.04251827 -0.0026702944 0.045092095

model_2/dense_6/BiasAdd/ReadVariableOp f4 [128]
00000000: c594 a13c 3eff 8fbb 9d8a 9c3c 584b 513c
00000010: 6178 e93b aa2e 07bc 9cb4 04bc 9aba 273b
00000020: e115 623b ba5d 923b 8c32 b33c c58d b7bc
00000030: 9092 3dbc 24cd 733c 9b0b 23bc 374c a53b
00000040: e0c2 c03b 1c8a f438 7aee 09bd 93ee 0fbc
00000050: 3e3b f1bc 9879 843c d2ae 9e3c fd48 dbbc
00000060: 1ef6 193c d5bd 87bc c331 e03a 0ebb d3ba
00000070: 512d d3bc 6adf 1abd c9d4 ee3b 77b4 993c
00000080: a31c 553b 3f5c 8ebc d84c 1a3c 460e 253c
00000090: e84c 903c 1cc2 c0bb c9c9 893a ce04 db3c
000000a0: 4023 56bc bffb 943c dc11 d7ba de9d 9e3c
000000b0: 1f18 85bc 09c9 1f3c 3e1e 913c 618a 92bc
000000c0: 76cd 69bc 8dfd 84bc f806 91bb d7eb d7bb
000000d0: a686 a73c 9d0c 5cbc 1fa8 b23b ea3c f93c
000000e0: 5dad 6dbc 44c7 a9bc 12e5 1f3b 9b94 88bb
000000f0: 8c84 73bc c0f2 903c 1eb8 8fbb 5d9a dd3b
00000100: 9c2e ec3b 14df 44bd cef5 5c3c 81f1 e03c
00000110: bea9 77bc 997c fb39 ca81 56bc 2120 11bc
00000120: 6552 093b 6e46 77bc 63e4 cf3a d1e5 0dbc
00000130: c5cb 5b3b 3c7c 0b3c 8a43 85bc 5e6c 92bc
00000140: 3016 663b 401d 7dbc c762 983c 961f fdbb
00000150: 735e ab3c 78e6 813c cc68 b6bb 9f01 233c
00000160: f890 243c 9389 d73b 2cba 7abc 24e2 613c
00000170: 6bc3 e4ba 62ef 2f3c eb1f 833a cd6c 3bbc
00000180: 1acf 97ba f23c 21bc f073 adbb 7925 e6bc
00000190: 566f cbba e4dc 1a3c 8175 d43b 4e53 a1bc
000001a0: 1330 293c be28 683a 6653 0dbc efd1 893c
000001b0: 5197 83bc ace4 ebbb bfdb aeb8 1ca2 b9bb
000001c0: 330c b3bc 8fb5 0ebc 1b0c 1a3b f559 003c
000001d0: 07b3 95bc a12e 2f3c e7af 04bc 36a3 993b
000001e0: b0dc d0bb 8070 913c 4177 a1bc 759a 7e3c
000001f0: 2e17 713b 4a1a ff3a 0070 0c3d 36d7 4f3c
0.01972426 -0.004394441 0.019109065 0.012774311 0.007124946 -0.008250872 -0.008099701 0.00255934
0.0034497904 0.0044667395 0.021874689 -0.022406468 -0.011570588 0.014880452 -0.009951497 0.005044486
0.005882606 0.000116605515 -0.033674695 -0.008784908 -0.029447194 0.016171262 0.01937047 -0.026768202
0.009397058 -0.016570011 0.0017104674 -0.0016153769 -0.025778444 -0.03781072 0.0072885496 0.01876281
0.003251829 -0.01737797 0.009417735 0.010074204 0.017614797 -0.0058825146 0.0010512407 0.02673569
-0.013069928 0.018186448 -0.0016408521 0.019362386 -0.016246853 0.00975252 0.017714616 -0.01788825
-0.014270177 -0.016234184 -0.0044258796 -0.0065893936 0.020449948 -0.013430742 0.0054521705 0.030424554
-0.014506665 -0.0207249 0.002439801 -0.004168106 -0.014863145 0.017693877 -0.004385962 0.0067627863
0.0072077047 -0.048064306 0.013486339 0.027458908 -0.015116153 0.00047967283 -0.013092468 -0.008857758
0.0020953652 -0.015092475 0.0015860911 -0.0086607495 0.0033538204 0.0085135065 -0.016267557 -0.01787394
0.003510844 -0.015448868 0.018601788 -0.0077247126 0.02091906 0.015856966 -0.005566692 0.009949117
0.010044329 0.0065776794 -0.015303176 0.013786826 -0.0017453259 0.010738226 0.0010004019 -0.011439514
-0.0011582107 -0.009841191 -0.005293362 -0.02809404 -0.0015520852 0.0094520785 0.006483734 -0.019693043
0.010326403 0.0008856169 -0.008625841 0.016823737 -0.016063364 -0.0071988907 -8.3378975e-05 -0.005665077
-0.021856403 -0.008710279 0.002350575 0.007833947 -0.018273843 0.01069227 -0.008098579 0.0046886457
-0.0063739643 0.01775384 -0.019710185 0.015539755 0.0036787498 0.0019462791 0.0342865 0.012685588

model_2/dense_6/MatMul1 f4 [128, 300]
00000000: b98d 6e3d d3a1 a1bd 2a51 a7bc 4800 81bd
00000010: 5b1b abbd 46f2 a43c d144 743d 2864 06bd
00000020: 1ff3 e839 4eda ebbc 86bb cd3d dcd2 afbc
00000030: eaac b83d 8647 0f3c 97f3 8abd 9d77 453c
00000040: cdae abbd d174 9fbd 6bad d3bd 4f01 b5bd
00000050: 69e8 09bd 782c 8ebd ff4d c3bc d643 a13b
00000060: a4d7 91bd 4990 a83d 58fb ebbc c988 acbd
00000070: 047d 9fbd f7e9 8bbb 6bf3 e53d 0117 f1bd
00000080: 6770 933d 845e e5bd 980a d0bd 843f cf3d
00000090: 9361 473c cb4e f23d 4fbd 98bd b206 b93b
000000a0: 9226 c33d e514 9abd 7124 01bd 964b 87bd
000000b0: 3a56 593d 34df 32bd 3e33 66bd d34a 9ebd
000000c0: 8d86 29bd 1785 683d 11b8 6fbc 0fd2 153b
000000d0: 03b9 a53d c411 303d 25a4 8f3d 3598 303d
000000e0: 3193 ad3c 1d7f 22bd f92c 99bd eaea 0d3d
000000f0: 35f4 a9bd 6400 5b3d fc66 f23b f46c 9f3d
00000100: e97d 413c 43c0 a1bd c79e 86bd 66eb b93d
00000110: 068f 9abd d075 513c 95ac 1ebd a9ce d3bd
00000120: df7d 973d 40c6 5b3d 3461 b93d 1c93 ab3d
00000130: cfeb 953d 92bb a23d 1037 23bd a30f ee3c
00000140: a008 953c 25ff b3bd 72e1 c2bd 820c 0abb
00000150: f9e0 6cbd 57dc 5cbd e449 a5bd c991 943d
00000160: d214 9b3c 2dfd d83c de6c ebbd 923b aabd
00000170: 8edc ee3d 0f59 95bd e6c0 d03d 4ac3 d03c
00000180: 202d f3bc 435a cf3c 69d5 bcbd 6ba5 5abc
00000190: aa1f 803c 0d8e 033d 6ab2 ec3d 6b62 453d
000001a0: 548a 07bd 94ec 2f3d 3fcd e73d 7885 b83d
000001b0: 182a 9b3c 6d9a 943d 26cd 03bc bbce 5eb9
000001c0: 8c50 f3bb 36e4 39bd e6fa 34bc 270e 1a3c
000001d0: 0739 573d 60c9 133d c4fc c43d fe75 e7bd
000001e0: 2c48 463d 48fe 01bd a3c5 1d3d 415e b1bd
000001f0: 51b1 5cbd 5c55 56bd ba9d bb3d e1aa a8bb
00000200: 8af7 533d 17af d7bd 0f7e bdbd 53c4 93bd
00000210: 6edb 4bbd eb3c 003d 1800 893d 48ca c2bb
00000220: 5323 9a3d a7ba 853c 543c 76bd 23cf 62bd
00000230: 19e1 72bc 9798 25bd cea2 d8bc 9d1d eabd
00000240: 694f fdba ac90 e13d 384a 2b3d 332f 843c
00000250: 745c 96bd 0c69 953c 70d4 ca3d 528c b2bd
00000260: dfff aebd 80e5 50bd cd07 e83d 3973 0cbd
00000270: 79fc 4e3d 6cfd cc3d 7839 9e3d 2620 203d
00000280: 4865 a83a 6109 9e3b 80c4 483d 28ed 993d
00000290: 18ca acbd 1352 4b3d b026 803d 9de2 ed3c
000002a0: 5f47 15bd 761a 4c3d fd14 e5bd b643 d3bc
000002b0: 2c6f 153d fce0 61bd 6a86 d3bd 999e e0bb
000002c0: 36aa 69bc 5586 28bd 8697 98bd 7d20 85bc
000002d0: 0d08 a6bc 2579 7bbd cc02 7fbd 373f af3d
000002e0: 29dc 5d3c 7f24 bb3d 2929 fbbc 724d d5bd
000002f0: 2b48 773c d672 98bd eeba 7b3d f516 b63c
00000300: 2669 9d3c 6db4 7b3d 9b15 a83d 5ff6 90bd
00000310: 5ee5 a83d e9e8 d3bd fc98 d33d 382b 53bd
00000320: f6de 0cbd 617d e2bd 112e c23d 9d01 1f3c
00000330: da5b 89bd 16f3 bd3d 2b36 6b3d 6151 783d
00000340: 7913 f83c 6faa 7d3d 1343 8dbd 716d efbd
00000350: de4e ea3d 794c 893d 8fb5 793d 78ca a53d
00000360: ff87 aa3d 024c aebd f5ea c33d 49c7 b9bd
00000370: 8866 d5bb ad6d 05bd cd79 413d 6d5c d93c
00000380: f119 713d b303 d2bd 12aa 833d 5efd a33d
00000390: 42ce c5bb 39c7 c33c e33c a5bc 1ad6 86bb
000003a0: e083 4f3d 31a9 98bd 7a63 2a3d 2f47 953c
000003b0: 6002 ed3d 837c c5bd 66aa 813c 56c0 b23d
000003c0: 2f0a 11bd 8a61 ecbd 5ee2 babd b691 c93d
000003d0: 0575 edbd 9a40 8dbb b4f4 9ebd 2f29 e13c
000003e0: db79 1fba bd45 2a3c 9393 b3bd 9a95 12bc
000003f0: f389 cf3d a97b 4a3d 7464 a4bd 7edc b3bd
0.058240626 -0.07892194 -0.020424444 -0.06298882 -0.08354827 0.020135056 0.05963594 -0.03281036
0.00044431628 -0.02879062 0.10045533 -0.02146285 0.09017356 0.00874508 -0.06784742 0.012052444
-0.0838295 -0.07785953 -0.10335811 -0.0883814 -0.03366891 -0.069420755 -0.023840902 0.0049214168
-0.07121208 0.08230645 -0.028806373 -0.08424527 -0.07787517 -0.004269834 0.11228069 -0.11771966
0.071991734 -0.11199668 -0.101582706 0.101195365 0.01216926 0.11831435 -0.07457983 0.00564655
0.09528841 -0.075235166 -0.031528894 -0.06606214 0.053060748 -0.043669894 -0.056201212 -0.07729115
-0.041388083 0.05676755 -0.014631287 0.00228608 0.08091929 0.042985693 0.0701373 0.043113906
0.02118835 -0.039672006 -0.07479281 0.03464786 -0.08298532 0.05346717 0.0073975306 0.07784453
0.0118098045 -0.07897999 -0.06573253 0.09078102 -0.07546811 0.012784436 -0.038738806 -0.10342152
0.07397055 0.053655863 0.09051743 0.08377668 0.073203675 0.079459324 -0.039847434 0.02906019
0.01819259 -0.08788899 -0.095156565 -0.0021064584 -0.05783174 -0.05392107 -0.08070734 0.07254369
0.018930826 0.026487911 -0.11495374 -0.083121434 0.11663161 -0.07292377 0.101930425 0.025483746
-0.029684603 0.025311595 -0.09220392 -0.013345103 0.015640099 0.032117892 0.11557467 0.04818956
-0.033090904 0.042950228 0.113184445 0.09009832 0.01894097 0.07256017 -0.008044517 -0.00021248583
-0.0074253734 -0.045383655 -0.011046147 0.009402788 0.05254462 0.036080718 0.09618524 -0.11301802
0.048408672 -0.031736642 0.03851856 -0.08660556 -0.05388004 -0.0523275 0.09160943 -0.0051473235
0.051749744 -0.105314426 -0.092525594 -0.0721518 -0.04976981 0.031308096 0.06689471 -0.005944524
0.07526269 0.016324354 -0.060116127 -0.055373322 -0.014824175 -0.040428724 -0.026444819 -0.114314295
-0.0019326034 0.11013922 0.041818827 0.016135788 -0.07341853 0.018238567 0.099038005 -0.0871817
-0.08544897 -0.05100012 0.11329613 -0.034289572 0.050533745 0.10009274 0.07725805 0.03909316
0.0012847567 0.0048228954 0.049015522 0.07515937 -0.08436984 0.04963882 0.06257379 0.029038722
-0.036445018 0.049829923 -0.11185644 -0.025789123 0.036482975 -0.055146202 -0.10328372 -0.006854844
-0.014261773 -0.041143734 -0.07450776 -0.016250843 -0.02026751 -0.06139483 -0.062258527 0.08556979
0.01354126 0.091378205 -0.030659275 -0.10415162 0.01509289 -0.07443778 0.061457567 0.022227744
0.019215178 0.061451364 0.08207246 -0.070782416 0.08246873 -0.103471585 0.10331914 -0.05155489
-0.03439232 -0.110590704 0.09481443 0.0097049745 -0.067069724 0.092748806 0.057424705 0.060624484
0.030282723 0.061930116 -0.06897559 -0.11690796 0.11440824 0.06704039 0.060964163 0.080952585
0.083267204 -0.08510591 0.09566299 -0.09071214 -0.006512467 -0.032575298 0.0472353 0.02653333
0.05886263 -0.10254612 0.06428923 0.0800731 -0.0060365507 0.023898708 -0.020170635 -0.0041148784
0.050662875 -0.07454146 0.041598774 0.01822242 0.115727186 -0.09642889 0.015828323 0.087280914
-0.035410102 -0.115420416 -0.09125207 0.09842245 -0.11594585 -0.0043106796 -0.07761517 0.027485458
-0.00060835265 0.010392603 -0.08768382 -0.008946801 0.101337336 0.049434338 -0.080269724 -0.0878229

model_2/dense_7/MatMul f4 [64, 128]
00000000: 72f2 f7bc c237 e9bd b8cd 25bc 6da4 153e
00000010: abbb 213d 9e2e ce3b 89a8 f2bd 19be 26bd
00000020: a1e8 dfbd 1f5b 5dbd 84c8 2d3d 14c0 083e
00000030: 4f58 0abc 6e3a b1bd 0fd6 1b3d 3cb4 27bd
00000040: a15a d23d afe4 8cbd cdd4 193e 3a6e cd3d
00000050: 4418 e93d 2bc5 26be 9600 97bc 0f20 323e
00000060: 1058 9fbc 1126 c5bd e97f b0bd eab4 1fbe
00000070: bb06 f0bd 8590 5e3c add0 25be 0f27 34be
00000080: f537 2c3e 505f 68bd de53 2ebc ed81 5fbd
00000090: f0ea b2bd 8bc1 3ebd a811 aabd 1f52 37bd
000000a0: b238 2b3d 3c82 12be 27d7 a33d fbed d83d
000000b0: d0cf 2b3e cc7e 8cbd a0fc 013e d31b 963d
000000c0: f29d a3bd 74f3 e53d 48ff 2b3e db27 f23d
000000d0: a774 89bd eeba e0bb 9a5e 12be d037 c03c
000000e0: 2976 1ebe a9ef 533d 888f d13d c895 c83d
000000f0: b158 b03d 9ce8 323e 1fa1 9c3d e1a6 7cbd
00000100: c1e1 193c 4363 073e 91d0 c8bd ff96 5bba
00000110: b166 733d 6824 f6bd 0e1f 8cbd 73cb 1e3e
00000120: a948 493d d21d cc3d 9eb5 d1bd 1346 dfbd
00000130: 7319 993c d9db 9abd 28a9 e93c 908c 893c
00000140: 6d52 b7bd 5bb6 bb3c 3722 b7b9 8f1c 983c
00000150: 8089 2b3d 0dbe ef3c 3219 343d e672 af3d
00000160: c868 dcbd 6a61 a7bd 511e 8d3d ac14 11be
00000170: 7bd8 c1bd 28a0 a33d 5fcd 30be 5ebc 88bb
00000180: e111 81bc 5d4e 323e 1db1 a93d 9589 053e
00000190: d292 f83d 4253 1bbe a315 143e 761b 2b3e
000001a0: 6594 27be 1cd1 293e 84ae c33d 0075 64bc
000001b0: d414 d5bd 19fa d03d f1ee fbbd 6540 cfbc
000001c0: a949 e7bd 4f21 f43d 2b3a 613c 08bb 55bd
000001d0: 457a c6bd 2d7f 46bd 89cd 193e 42bb cdbd
000001e0: 2968 273e 790f 2c3e 5fff a93d fc84 1ebe
000001f0: 5f9a 5dbd f8fe 813d 2d33 96bd 0022 01be
00000200: d93b 193d 3a76 07be b527 d43d 6bde c83c
00000210: 1ddd c9bd b2d2 adbb 4018 fe3c 55fe 25be
00000220: b918 ce3d 0b6e 973d a568 1dbe e3f3 2b3e
00000230: 74a2 c6bd 79ef bfbd 826b 1fbe 6706 86bb
00000240: 6bd6 91bd 92b2 0d3e 1ced fc3d 5e63 243e
00000250: a845 69bc 8ea8 16be e8a4 ae3d dd98 a83d
00000260: 32e3 033e f254 213e 062b debd 598d 27be
00000270: 3f6d d73d 14d7 06be 4449 f33d 96e7 d2bd
00000280: 7489 aabd fb6a 34bd a592 32bd d7f3 1ebe
00000290: b70a 033e fd77 243e f6a3 e3bd 5e9d 89bd
000002a0: 966f febd 7e69 6bbd f7be 123e 9c8d 3abc
000002b0: 1b6d 6a3b 2b5c 24be 71d7 4abc 2ecf 01be
000002c0: baac dfbd 5708 e73d f826 443d 3ca1 a6bd
000002d0: 3ebe b0bd 3cfa ba3a fb86 65bd 760e 293e
000002e0: d68c 1e3e c33c 52bd 4d14 9bbd 7159 9b3d
000002f0: 0219 1b3e 8856 e03d e77a 4abd 634f 0c3e
00000300: 0fc9 eb3d 2b23 553d 4185 373d da84 2fbc
00000310: 288e e4bd f8e5 7ebd 03b2 0dbd b841 08be
00000320: 1041 1d3d fd27 9d3d 1efb be3d 5a14 273e
00000330: bdb7 d03d 0daf 723d efdd 8c3b 2f43 aebd
00000340: ea66 00be 8418 bcbd e6d0 833d 3230 eabd
00000350: 3bcd c4bd 28bc f03d af80 173e 89e9 11be
00000360: bc91 eebd 0567 dc3d b9bd f3bd c104 a33d
00000370: 311f 12be ec6c 67bd 0a39 28be 7173 073e
00000380: 8181 dfbd 7295 32be 7abd ce3d 3b23 30be
00000390: 2985 c33c eb62 de3c 2ce3 0fbe 4407 bdbd
000003a0: a6ae d33d 9f4f 223e e78c d33d a47b c2bd
000003b0: 0e60 f1ba e2d0 f63b f167 d43d d59e 45bd
000003c0: 18f0 c1bd 7c1b b03d b20e 233e de97 073e
000003d0: 50c9 0e3e 9841 e43d 555d f6bd 66cb 52bb
000003e0: 78ec eb3d 6adf ba3d f190 503d 29c9 1c3e
000003f0: bce2 e6bb 6e7b 443d 8159 0b3e f746 15be
-0.030266974 -0.11387588 -0.010119848 0.14613505 0.039485615 0.0062921783 -0.11848552 -0.040708635
-0.10933042 -0.054041978 0.042427555 0.13354522 -0.008443906 -0.08653723 0.03804594 -0.04094337
0.10271192 -0.068795554 0.15022583 0.1003079 0.113815814 -0.16286151 -0.018432897 0.17395042
-0.019451171 -0.09626401 -0.08618147 -0.15596357 -0.11720034 0.013584261 -0.16192885 -0.17593025
0.16818221 -0.056731522 -0.010640113 -0.054567266 -0.08736217 -0.046571296 -0.08304149 -0.04475605
0.041802116 -0.14307493 0.080000214 0.10592266 0.16778493 -0.06860122 0.12694025 0.07329526
-0.0798911 0.112280756 0.16796601 0.11824008 -0.06711703 -0.0068582213 -0.142939 0.023464113
-0.15474762 0.05174223 0.102324545 0.097941935 0.086106665 0.17471546 0.07647919 -0.061682586
0.009392203 0.13221459 -0.09805406 -0.0008376687 0.059424106 -0.12018663 -0.06841861 0.15507297
0.04914156 0.09966625 -0.10239719 -0.109020375 0.018688893 -0.07561464 0.028523043 0.016790658
-0.08951268 0.022914102 -0.00034929972 0.018568305 0.041879177 0.029265428 0.04396934 0.08566837
-0.10762173 -0.08172877 0.06890548 -0.14168042 -0.094651185 0.07989532 -0.17265843 -0.0041728457
-0.015755596 0.17412706 0.08285735 0.13040765 0.12137379 -0.15168479 0.14461379 0.16709694
-0.16365202 0.16583675 0.095547706 -0.013943911 -0.10404363 0.10203952 -0.12301434 -0.02529926
-0.112933464 0.119204156 0.0137467785 -0.05218032 -0.0969129 -0.048461128 0.15019812 -0.10045482
0.16348328 0.16802777 0.08300661 -0.15480417 -0.054102298 0.063474596 -0.0733398 -0.12610626
0.03741059 -0.13228694 0.10359136 0.02452012 -0.09856627 -0.005304658 0.031017423 -0.16210301
0.10063309 0.07394036 -0.1537195 0.16792254 -0.09698954 -0.09371848 -0.15568355 -0.0040901187
-0.07120975 0.1383765 0.123499125 0.1605353 -0.014237799 -0.14712736 0.08527547 0.08232281
0.12879637 0.1575506 -0.1084805 -0.16362514 0.10518884 -0.13167983 0.11879209 -0.10298078
-0.08326998 -0.044047337 -0.043596882 -0.15522705 0.12797056 0.16061397 -0.111152574 -0.067194685
-0.12423627 -0.057473652 0.1433066 -0.011386301 0.0035770598 -0.16050784 -0.012380467 -0.12676689
-0.10921617 0.112808876 0.047888726 -0.08136222 -0.08630036 0.001426525 -0.05603693 0.16509423
0.15483412 -0.05132748 -0.075722314 0.07585419 0.15146258 0.109540045 -0.049433615 0.13702159
0.11512958 0.052035492 0.044804815 -0.010712827 -0.11159927 -0.062231034 -0.034593593 -0.1330632
0.038392127 0.07673643 0.093252406 0.16316357 0.10191295 0.059248973 0.0042989175 -0.08508908
-0.12539259 -0.091843635 0.064363286 -0.11434974 -0.09609457 0.11754638 0.14795183 -0.14249243
-0.116488904 0.10761837 -0.11901421 0.07959891 -0.14269711 -0.05650036 -0.16428009 0.13227631
-0.10913373 -0.17439821 0.100947335 -0.1720094 0.023867207 0.027146777 -0.14051503 -0.092299014
0.10336046 0.15850686 0.10329609 -0.09496239 -0.0018415467 0.007532225 0.10371388 -0.048247177
-0.094696224 0.08598992 0.15923575 0.13241526 0.13943982 0.111453235 -0.120295204 -0.0032164692
0.11519712 0.09124644 0.050919477 0.15311112 -0.007046072 0.047969274 0.13608362 -0.14577852

model_2/dense_8/MatMul f4 [1, 64]
00000000: 1906 94be 82e2 233e 7e3c 1f3e 047b a1bd
00000010: c8a7 833e a0d1 28be 1bcf 7cbd 5b95 533d
00000020: 8099 5ebd 6dcf 843d 76f1 173e bbe2 143c
00000030: 967b 8d3d 4007 dcbd 6815 6b3e 47bc b5bd
00000040: 63a2 853e 2531 903e 204c 0f3e d143 7b3e
00000050: d24c a3bd e5d2 1dbd c8c2 313e 9b6a 773d
00000060: 3b34 003e f41c 623d 46e2 193e 3668 9bbc
00000070: 915e 983e 2e61 edbd 7d52 95be 3d9f 803c
00000080: 8ec1 c3bd c12b 073e cc4d 433d 7059 8a3d
00000090: 6412 3f3e cd8f 1dbe 7373 02bc 9383 0ebe
000000a0: 75ae 713e c81c ac3d 1263 1fbe a210 873e
000000b0: d274 853e aee4 7cbe a8cc 9d3e 1804 76bd
000000c0: f7ea 263e 6df1 36be a1bb f1bc bd15 833e
000000d0: d48e 513d 1e49 833e 3cb2 15be ffce 2cbe
000000e0: fcbc 83bb 56ac 44be 381d 4fbe 8ff5 5b3e
000000f0: 4c0a 483e 3d13 143c 77f3 a93d 7766 00be
-0.28910902 0.16004375 0.1555042 -0.078847915 0.25713944 -0.16486216 -0.06172095 0.05165611
-0.054345608 0.06484876 0.14838204 0.00908726 0.06908338 -0.1074357 0.22957385 -0.08873802
0.26100454 0.28162494 0.13993883 0.24537589 -0.07973637 -0.038531203 0.1735946 0.0604044
0.12519924 0.055203393 0.15027723 -0.01897059 0.29759648 -0.11590801 -0.29164496 0.01570093
-0.09558402 0.13200285 0.047681615 0.0675534 0.18659359 -0.15386887 -0.007962096 -0.13917379
0.23601706 0.08403927 -0.15565136 0.26379877 0.2606569 -0.2469661 0.30820203 -0.060062498
0.1630057 -0.17865534 -0.029508414 0.25602522 0.051161602 0.2564172 -0.14618772 -0.16875838
-0.0040203314 -0.19206366 -0.2022599 0.21480392 0.19535178 0.00903779 0.0829839 -0.12539087
