Kucingku_model.tflite (tflite, 213524 bytes, 10 tensors)

model/embedding/embedding_lookup f4 [2, 50]
00000000: 8d71 863c 8627 bd3b 9b76 763c ffc0 3d3d
00000010: 4d9b 193d c9cc be3c 233c 953c 63fe ac3c
00000020: eb9b 57bc b4a5 203d 67a1 16bd ad2d 21bd
00000030: 661e 20bc 19f0 cebc 7b23 453d b7f1 fdbc
00000040: bc99 e2bb f84c 61bb 78a7 813c 03ad 0ebd
00000050: a828 3fbd 201b 71bc 3adb ecbb 419f 5dbc
00000060: 1943 ad3c 0965 fcbc 62b4 95bc b9f0 223d
00000070: 1d73 2f3d 16de 223d 86cc 7e3b 2c95 33bd
00000080: 124c b5bc f3cd 333d 472d 043d f04f fd3c
00000090: bfed 32bd a88d e03c adbd 53bb 15ca 5dbd
000000a0: 0f76 e0bc 21ff 28bd 0245 b5bc f4f5 3939
000000b0: 104d 823b e221 9a3c 8ccd 48bb fcdd 60bd
000000c0: 45a7 3ebc ce9b d63c acd4 f53c adc9 76bc
000000d0: b0d2 383d 325e 5b3c 0920 bebb 62d5 4b3c
000000e0: d011 193d 7675 93bc aa21 ab3c 8149 0ebd
000000f0: 7599 d7bc 596b 00bd 8126 e9bb 4c09 84bb
00000100: 665a 2abd 3eea 57bd 5f47 8f3b 9871 19bd
00000110: dfc3 9ebc 3d5e bcbc b85a 243d 2952 f5bc
00000120: 792f b1bc 8834 a6bb ece0 ab3c a55b 1c3d
00000130: c17e a1bb a8a8 a53c ef03 183d 577b d33b
00000140: c0bf 703d f87b 0bbd 9104 203d 72c5 9a3c
00000150: 2788 8abc 3d01 20bd b9c0 f03c 90fa e43c
00000160: 563e 40bc 602c dc3c 90cb 443d 1930 2fbd
00000170: 96ae 073c 6183 6f3d f1aa 6e3c f9a0 34bc
00000180: 13ab af3c 3954 10bc 951d dfbc 5607 1fbd
0.016411567 0.005772534 0.015042926 0.046326634 0.037501622 0.023291009 0.018217152 0.021117395
-0.013159732 0.039220527 -0.03677502 -0.0393502 -0.009772873 -0.025260972 0.04812954 -0.030999048
-0.006915299 -0.0034378152 0.015826926 -0.034832966 -0.046669632 -0.01471594 -0.0072282823 -0.013526739
0.021150159 -0.030809896 -0.01827449 0.039780352 0.04283439 0.03976258 0.003887923 -0.043843433
-0.022131 0.04389758 0.032269742 0.030921906 -0.043683764 0.027411297 -0.00323091 -0.0541478
-0.027400045 -0.041258935 -0.022127632 0.000177346 0.0039764717 0.018814985 -0.0030640094 -0.0548992
-0.01163656 0.02619734 0.030008636 -0.015062732 0.045122802 0.013389157 -0.0058021587 0.012441011
0.037370503 -0.018000346 0.020890076 -0.034738068 -0.026318291 -0.031352375 -0.0071151857 -0.0040294286
-0.041590117 -0.052713625 0.004372522 -0.037461847 -0.019380508 -0.022994155 0.04012558 -0.029946404
-0.021629082 -0.00507218 0.020981275 0.038173337 -0.0049284403 0.020222023 0.037113126 0.0064539122
0.058776617 -0.034053773 0.039066855 0.018892977 -0.016910626 -0.03906368 0.029388772 0.027951509
-0.011733612 0.026876628 0.048045695 -0.04277048 0.008281371 0.058474902 0.014567123 -0.011024707
0.02144388 -0.008809143 -0.027235785 -0.038825355

model/embedding_1/embedding_lookup f4 [85, 50]
00000000: eeef 963c 00bd 38bb 41fd 273d 4ce9 6fbc
00000010: f0a3 0fbd f3fc 37bd 80c2 5dbc 3d94 1fbd
00000020: 5a0e f23c 80bb 8abb e08f 1fbd 1268 833c
00000030: b2fc a63c f99d 2a3d c259 893c 9823 e3bb
00000040: 2dfe f1bc 40e5 453c c3c3 323d c080 3a3c
00000050: 5137 0b3d 42d0 a73c fa18 a2bc 2e95 ca3c
00000060: b033 a13b 24d4 753c 84a3 783c 743b 80bc
00000070: ce22 d63c 5288 f63c c9f3 163d 2a3a 20bd
00000080: 80a5 41bd 970c 013d 4713 f4bc a085 5a3b
00000090: 0056 40bb 001e f83b a0e5 8eba 54bf 02bd
000000a0: 407b 583a 7019 2cbd 8e71 ea3c 2017 4cbd
000000b0: d0dd 8e3b 43bd 21bd da38 ae3c 28a6 5ebc
000000c0: 1a5f ccbc cc03 2d3c a01c 4ebb 80a1 323a
000000d0: d022 b2bb b498 7cbc a1b3 393d 8c57 3dbc
000000e0: 602c e3bc 4056 4abd 828c 863c 180d 213c
000000f0: dd29 2cbd 27f7 393d 4375 1fbd 3ab7 f9bc
00000100: 2840 4bbc fde5 263d 00fd f339 0021 803b
00000110: 17e8 253d 5250 c73c b01e ab3b 0633 923c
00000120: f42e 6a3c 4abb 19bd 3701 433d 47f7 b1bc
00000130: 8036 22bd 877c a3bc 6899 18bc e6bb 15bd
00000140: d7a4 39bd e364 0d3d ad25 a7bc 60a2 603b
00000150: 7392 2b3d 4c90 06bc e9f4 353d c040 663a
00000160: 59ad 1c3d 3a99 91bc 5c6c 633c e8ce f5bb
00000170: 164a 14bd 4d1e f7bc 307d f03b e753 40bd
00000180: 40ff afba 3644 2abd e796 d5bc 9419 98bc
00000190: cffd 0a3d 11dd 213a 6d04 36bd e7e7 11bd
000001a0: 7017 e93c 227a abbc f83e 32bb 843c 3a3d
000001b0: cdd3 da3c 4b1e 3c3c 9495 0cbd 4477 093d
000001c0: 4e9a 26bd c7ce ddba 08f3 edbc 69dd d8bc
000001d0: ed2f 353d 4f59 a93b 6ea0 57bc b9b6 9538
000001e0: 0233 a63c 0fe8 dd3c 94f9 13bd 6557 263d
000001f0: 3748 e4bc 34b0 ce3c d90c c2bc 0471 a7bc
00000200: a9a4 f23c 86fd 97bc e5b9 34bd e988 39bd
00000210: 52f4 c63c 0574 2abd 0294 b8bc e60c 39bc
00000220: 7393 46bd 0e12 3fbd 29b8 cc3b 1eb2 1fbd
00000230: dd4a 9a3c 4332 433d a5e4 cfbc e199 223d
00000240: 4f98 db3c 3d45 df3b 48d2 b43b f159 74bb
00000250: dc4e 37bd 9390 ec3c dd9d 0c3d 4c69 0b3c
00000260: 34cc 05bd 1a43 e93c 24d4 543c a3cd 383d
00000270: 7336 193d 506d 9dbb 1d40 46bd 1202 da3c
00000280: cc74 3cbc 188f 093c e842 bdbb ba5e 1abd
00000290: 20cd a6bc 1a6c 8cbc c72a e4bc eca6 8dbc
000002a0: 98a0 53bc 8d94 c5bc 2615 b53c c3a0 18bd
000002b0: 83db 32bd d36d 38bd 8dd6 09bd eaa6 1fbd
000002c0: 536c 18bd 92bc a43c b4f1 7f3c e290 f23c
000002d0: 4c34 513c 59d0 033d e886 0abc 4ec4 903c
000002e0: baca ec3c 40ef c6bc 5a1d 02bd b788 45bd
000002f0: 5a42 49bd 18c8 303c a713 e9bc a3af 28bd
00000300: 561a 08bd 8483 01bd c31d 433d 8d2a d6bc
00000310: 26c5 f73c b925 0a3d c7a3 0c3d 0d94 08bd
00000320: 9a82 f43c 7675 15bc 1e45 58bc b10d 263d
00000330: 1708 013d cc5c 43bd a264 413b 9fd9 8d3c
00000340: e422 9fbc bb7b dcb9 6123 0fbc 6d08 8e3b
00000350: a3c3 963c 752e 0b3d 599b b4bc 1753 23bc
00000360: 907b cebc a95b 10bd f57a 613a 8c84 71bb
00000370: 1c4e 223a 8205 11bd 67ee da3c 4a45 413d
00000380: baa1 3a3c 9c7a e7bc bb58 00bc 164a 97bc
00000390: c023 21bd 7d58 01bc 6b72 c3bc 77a7 a239
000003a0: 19a0 04bd d75c 013d e747 c23b 750e 3b3d
000003b0: 5a6a 43bd a205 0dbd 3b04 a1bb c42f 10bd
000003c0: 01d2 e63c 506e 223d fffd 3d3d 4b55 073d
000003d0: a3f8 2a3d bf67 0a3d d12b da3c 4810 473d
000003e0: 6376 2bbd d23c 1d3c 982f b8bb 119e 1e3d
000003f0: a038 41bb 8ed4 9b3c 80a9 b2b9 c73f 39bd
0.018424954 -0.0028188825 0.041013006 -0.014643025 -0.035068452 -0.044918966 -0.013535142 -0.03895973
0.029547859 -0.0042337775 -0.03895557 0.016040836 0.020384166 0.04165456 0.016766433 -0.0069317333
-0.029540146 0.012078583 0.043643724 0.011383235 0.0339883 0.020485047 -0.0197873 0.024729338
0.0049194917 0.015004192 0.015175704 -0.01565335 0.026139643 0.0300943 0.036853585 -0.03911797
-0.047276974 0.031506147 -0.029794348 0.0033343807 -0.0029348135 0.0075719357 -0.0010902174 -0.031920746
0.0008258112 -0.042016447 0.0286186 -0.04982674 0.004359938 -0.039487135 0.021267343 -0.013589419
-0.024947692 0.010559987 -0.0031450167 0.00068142265 -0.005436279 -0.015417267 0.045337323 -0.011556517
-0.02773112 -0.04939866 0.016424421 0.009829782 -0.04203211 0.04540172 -0.03893019 -0.030482877
-0.012405433 0.040746678 0.00046537071 0.003910184 0.04050454 0.024330292 0.005222164 0.017846595
0.014293421 -0.03753213 0.04760858 -0.021724356 -0.039602757 -0.01995684 -0.009313919 -0.036556147
-0.04532322 0.03452004 -0.020403707 0.003427647 0.04188771 -0.008213114 0.044423018 0.0008783452
0.038251255 -0.01777326 0.013880815 -0.007501472 -0.036203466 -0.030165816 0.0073391423 -0.046955016
-0.0013427511 -0.041568957 -0.026072932 -0.018566884 0.033933457 0.0006174604 -0.044437815 -0.03562155
0.028453559 -0.02093226 -0.0027198177 0.04546787 0.026712323 0.011481832 -0.034322336 0.033561006
-0.0406745 -0.0016922586 -0.02904655 -0.026472764 0.04423516 0.005168117 -0.013160808 7.1389084e-05
0.020287994 0.027088193 -0.036126688 0.04061069 -0.027866466 0.025230505 -0.023687767 -0.020439632
0.029619532 -0.018553507 -0.044122595 -0.045296583 0.024286423 -0.04161455 -0.022531513 -0.011294579
-0.048480462 -0.046648078 0.0062475395 -0.038988225 0.018834526 0.047655355 -0.02537758 0.03969753
0.026806025 0.006813674 0.0055182315 -0.0037285055 -0.04475294 0.028877532 0.034330238 0.008508991
-0.032665446 0.02847438 0.012990031 0.045117985 0.037405442 -0.004804291 -0.048400987 0.026612315
-0.011502456 0.008395933 -0.005775798 -0.037687995 -0.020361483 -0.01714139 -0.02785243 -0.017291509
-0.0129167065 -0.024118686 0.02210481 -0.03726269 -0.043666374 -0.04502661 -0.033651877 -0.03897754
-0.03721268 0.020109449 0.015621591 0.029610101 0.012768816 0.032181118 -0.008455016 0.01767173
0.028905261 -0.024284005 -0.031766273 -0.048226085 -0.049135543 0.010789894 -0.028451754 -0.041183125
-0.03322824 -0.031619564 0.047635805 -0.026143337 0.030245375 0.03372738 0.034335878 -0.033344317
0.029847432 -0.009122243 -0.013200073 0.0405404 0.031501856 -0.04769592 0.0029509445 0.017315684
-0.019425817 -0.00042053856 -0.008736462 0.0043345005 0.018403834 0.03397985 -0.022046732 -0.009968541
-0.025205404 -0.035243664 0.0008601391 -0.0036852686 0.0006191449 -0.035405643 0.026725007 0.04718522
0.011391098 -0.028256707 -0.007833655 -0.018467944 -0.039340734 -0.007894632 -0.02385827 0.0003102382
-0.032379244 0.03158268 0.0059289816 0.045668084 -0.047708847 -0.0344292 -0.0049138344 -0.035201803
0.02817631 0.039655983 0.046384808 0.033040326 0.041741025 0.033790346 0.026632221 0.04859951
-0.04186095 0.00959702 -0.005620908 0.038724963 -0.0029483214 0.019022252 -0.00034077093 -0.04522684

model/embedding_5/embedding_lookup f4 [5, 50]
00000000: 7419 b0bc 3eb5 8fbc 7ecf 553c dabf fdbc
00000010: 011f 003d 73b7 eb3c ad25 1fbc 4856 ac3c
00000020: 66ab 0ebc 7613 ddbc 6f2e 803b 27c5 4cbd
00000030: 0b25 333d 66f9 3abc 5efe da3a f370 94bc
00000040: e6da d03b 8edc e8bc f55e 0cbd fbad 063d
00000050: 4bb9 eb3c e1fb c53c ae72 cbbc cecf 31bd
00000060: a5ad 74bc 1b80 d23b 6226 743d 479a 2f3d
00000070: b5ec 34bc e42b 71bb 18a7 943c 0d76 5a3b
00000080: 2627 6c3d 8c33 903c 277b 93bc 777e d73c
00000090: 6097 173d 973e dd3c 9da7 08bd 507e ce3c
000000a0: 6dad 40bd 440b a8bc 86ae 9e3c 193e a43c
000000b0: 47b2 273d 7ff0 d0bb 20c9 d6bb 7777 223d
000000c0: fd11 cabc b415 0fbc f3ed ddbc 0e02 8b3c
000000d0: 8796 d6bc 0758 a0bc 30f9 71bb 57ef 38bd
000000e0: 6078 fabc 398e 153d 534e dabc f440 08bc
000000f0: 802f 61bc dabe 913c 0cd7 513c 0080 55bb
00000100: 0a4a 02bd 0cc4 743c d342 adbc d3c1 eebc
00000110: 0e96 de3c 7439 423c cd0a 1bbd d0cf 99bb
00000120: d7d7 35bd 243c 02bd 67c7 3cbd 0cca 4a3c
00000130: daf5 92bc 7dab 3d3d 7139 053d 34f3 573c
00000140: d603 04bd 6026 dcba 180e 81bb f0a1 1ebd
00000150: 34c2 3fbc 0737 f0bc 56c9 2abd 0ec3 f53c
00000160: c0d7 14bd 1dc8 13bd 427a bb3c c074 183a
00000170: 4627 26bd 7365 49bd 0217 e33c e1c9 323d
00000180: a2fc 9b3c 402b b3bc 8032 b93b 8462 07bd
00000190: 836e 37bb 474e 63bd 8594 bf3c 2e2d bd3a
000001a0: 8612 f53c c4ab 7d3c af03 333b 441b 85bb
000001b0: 49b3 3b3d ecd0 4fbc df54 353d 6d1d 1b3d
000001c0: bb4b 07bc 4e73 543c b7c4 52bc 2a0d e7bc
000001d0: c3f6 2bbd 04d8 383d 1460 643d 171f e1bb
000001e0: c2b8 2cbd a235 18bd 7b44 823c a2da 00bb
000001f0: fe13 3cbd 9b98 573d 34d4 413c 0166 e3bc
00000200: 89ae f6bc e485 0ebc 07db d8bc 3d6b 81bc
00000210: 80b0 f73b a658 89bb 7410 323b f03d 56bb
00000220: 3f3a f43c 9de0 fdbc 859e 4a3c 313e fd3c
00000230: 9302 823a e146 c03c bede 6f3c 98e5 cc3c
00000240: d441 2c3d dfed 0d3b 6294 f63c ba8f e53c
00000250: 5a5e 2fbd ac7e 563d bda0 1abd 204f 983c
00000260: c949 38bc 4ddd 33bc 8ed5 673c 5db8 373d
00000270: 5bc8 ef3c aa64 0f3c e7ab a83c 10ec c73c
00000280: 920a 2e3d 1485 44bd b4df d3bc 9fc0 153b
00000290: 89e9 8ebb 73a7 cf3c 8c8f 8f3b f900 44bd
000002a0: 6994 90bb aac5 e93b e94b 0c3c 71b9 3abd
000002b0: c1c3 e2bc 10f0 5dbb 0a73 053d bf48 843c
000002c0: 44bf 063d 4251 2a3d 0ef2 32bd d14d 143c
000002d0: 3f1a 3e3d 459a ffbc 9245 24bd 65ed 5a3c
000002e0: 5cdb c2bc 3e84 0abd dfe7 0e3d f0fd 0dbd
000002f0: 61ab 4239 4c38 503c e7e8 603c d5fc ad3c
00000300: 1526 28bd b63f 20bd 8385 963c 83ed 84bc
00000310: af4d 9abb 873f 3fbd dd26 293d 0fc1 873b
00000320: 71f9 1f3d 29ef cfbc 865d 75ba 8db5 d0bc
00000330: 4d5b 0ebc 6901 fd3c a1f0 563c 405c 7c3c
00000340: c696 f0bc 6347 a1bc 6d6b bbbc 9c1b 38bd
00000350: a822 16bc 0d21 a639 1fe2 da3c e2fa 07bd
00000360: fae6 44bd 8361 adbc 2e88 00bd 7c1c 9abc
00000370: ba76 1e3d 6e4a 25bd 8046 2cbd 90c6 27bd
00000380: aa9b b6bb f451 1ebd 9243 59bc 18f3 bf3a
00000390: 51f4 9cbc c12a c8bc 377a d23c 2121 05bd
000003a0: c909 cebc 59d0 293d 1e1f 3a3d 27f6 9bbc
000003b0: 322a cd3c d51b 8e3b af78 ea3c 6c45 2c3c
000003c0: 9b02 ebbc f1b7 333d 5d75 273d 38de cbbc
000003d0: a5c4 83bb f6a2 4bbc fec6 38bd 4a39 893c
000003e0: 936a 333d aee6 2a3c
-0.021496512 -0.017542478 0.013049958 -0.030975271 0.031279568 0.028773999 -0.009713572 0.021037236
-0.008707857 -0.026986819 0.0039117853 -0.049992707 0.0437365 -0.011412 0.0016707887 -0.018120265
0.006373751 -0.028425481 -0.034270246 0.032880764 0.028774878 0.024167957 -0.024834957 -0.04341107
-0.014933978 0.006423963 0.059606917 0.04287174 -0.0110427635 -0.0036799842 0.018146083 0.0033334524
0.057654522 0.017602704 -0.01800306 0.02630542 0.037009597 0.027007384 -0.033362973 0.025206715
-0.04704039 -0.020513184 0.019370329 0.020049142 0.040941503 -0.0063763256 -0.0065547377 0.03966471
-0.02466678 -0.008733202 -0.027091002 0.016968753 -0.026194824 -0.019573225 -0.003692221 -0.045150127
-0.030574977 0.036512587 -0.026648676 -0.008316267 -0.013744235 0.0177912 0.012807619 -0.0032577515
-0.03180889 0.014939319 -0.021150028 -0.029145157 0.027171161 0.011854518 -0.037852097 -0.0046939626
-0.044395294 -0.031795636 -0.046088602 0.012377273 -0.017939497 0.046306122 0.032525484 0.013180543
-0.03223022 -0.0016796105 -0.0039384477 -0.038728654 -0.0117040165 -0.029323114 -0.041695915 0.030000236
-0.036338568 -0.036079515 0.022885446 0.0005815737 -0.040564798 -0.049169015 0.027720932 0.043649558
0.019041363 -0.02187121 0.005651772 -0.033052936 -0.0027989454 -0.055494573 0.02338625 0.001443302
0.02991606 0.015482847 0.0027315428 -0.004062088 0.045825277 -0.012684088 0.044270393 0.03786986
-0.008257802 0.012966944 -0.012864283 -0.02820452 -0.041983377 0.045127884 0.05575569 -0.0068701613
-0.042168386 -0.037160523 0.015901795 -0.0019661565 -0.045917504 0.05263577 0.011830378 -0.0277586
-0.030112522 -0.008698914 -0.026471628 -0.015798206 0.0075588822 -0.004191476 0.0027170451 -0.0032690726
0.02981293 -0.030990893 0.012366896 0.030913444 0.000991898 0.023471298 0.014640508 0.025011823
0.042054966 0.0021656675 0.030100051 0.028022636 -0.04281459 0.052366897 -0.03775095 0.018592417
-0.0112480605 -0.010978055 0.0141500365 0.044853557 0.029270342 0.0087520275 0.020589782 0.024404556
0.04249055 -0.047978476 -0.025863506 0.0022850407 -0.0043613357 0.0253484 0.004381126 -0.04785249
-0.004412223 0.007134159 0.00856302 -0.045587007 -0.027681233 -0.0033865012 0.032580413 0.01614797
0.03289725 0.0415814 -0.043687873 0.009051756 0.04641175 -0.031201491 -0.04010541 0.013362263
-0.02378624 -0.033817522 0.0348891 -0.034666 0.00018565125 0.012708735 0.013727403 0.021238724
-0.041051943 -0.03912326 0.01837421 -0.016226536 -0.0047089676 -0.046691444 0.04129683 0.0041428874
0.039056245 -0.025382595 -0.00093599444 -0.025477195 -0.00868876 0.030884461 0.013118894 0.0154028535
-0.02936877 -0.01968736 -0.022878373 -0.044948205 -0.009163536 0.00031686612 0.026719151 -0.033198245
-0.04807184 -0.021164661 -0.03137987 -0.01881241 0.038687445 -0.040354185 -0.04205942 -0.04096085
-0.005572756 -0.038652375 -0.013260739 0.0014644591 -0.019159468 -0.02443445 0.025693042 -0.032502297
-0.02515115 0.04145846 0.045439832 -0.019038273 0.025044534 0.004336814 0.028622 0.010514598
-0.028687766 0.043876592 0.04088341 -0.024886236 -0.0040212446 -0.01242899 -0.04511165 0.01675095
0.04380281 0.010430975

model/embedding_4/embedding_lookup f4 [4, 50]
00000000: dcf5 253d 5032 ba3c f140 193d 2571 abbb
00000010: 09c6 223d de47 263c 6eb1 273d e434 1b3c
00000020: c4bd ab3c d6a7 ad3b 7bd5 cfbc a242 ec3c
00000030: d16b 39bc d0f2 15bd adc7 aa3c ce67 083c
00000040: 3044 2c3b d453 113d d38e 5fbc 734a 803c
00000050: 792b 22bd 7ef2 27bd 61dd e8bc 0031 373d
00000060: 6d47 923b 544f a7bc 987a bebb 6479 5cbc
00000070: a75a 323d 18b1 593c 9074 c23b 8080 0b3d
00000080: 2fe1 ef3c 09f5 4fbb 905d ae3c 8598 cd3c
00000090: 4bd4 22bd a3a2 0ebd 074b 65bc f1c2 eb3c
000000a0: 66e0 833b 55f6 d33a 5550 093c 0489 42bd
000000b0: 8d86 213d c88c 8a3c 8c5a 06bd 4f31 0f3c
000000c0: a960 1ebd c372 de3b c3a5 4c3d a33f 5cbb
000000d0: 0bb9 00bc 5f24 04bd 8b1d 083d 9cac e13c
000000e0: 7b2c c339 736f bf3c 5592 0dbd b7d5 d5ba
000000f0: b2f4 14bd 8dab c33b 4d62 a93c a44d 033d
00000100: 7a04 10bb 4648 33bd b4c9 07bd 6b44 d0bc
00000110: 109b d8bc 05e9 833c 0398 123b 35dd 243c
00000120: 71c0 4ebc 1c42 293d d07f 2cbd e08d 913b
00000130: 29e6 b13b 3e42 9cbc 9fad 41bc dbe8 673b
00000140: 1182 0fbc 9caa 273d 2969 3cbd fee7 a8bc
00000150: a34f 25bd 0619 ff3b 824f 0ebd 87c2 483d
00000160: 7d70 83bc e348 163b 9afb 5d3c bc6a f9bc
00000170: 37bb c3bb 28be 953c eac6 0cbd d02c c43c
00000180: 1f08 3fbd 73e4 45ba 2a56 293d 378e a6bc
00000190: 3492 353d 063a 863b 8a9c 8c3c 86a6 8e3b
000001a0: 0515 493d 1bc8 2dbd c5db 39bd 8d9b 4ebc
000001b0: 59fb 3c3d cc5a 4abc db2a 5a39 d23a 153c
000001c0: 4642 e23c 5794 22bc 99ad 27bb 79f0 473d
000001d0: bdac 31bd 16bd 033c cd96 b53c b76d 183d
000001e0: 1ef1 0c3c 7e68 b0bc 9225 863c 6769 073a
000001f0: 0dcc c9bc 82a4 40bd 262b 1ebd 83be f8bc
00000200: 11d0 6ebc 3537 40bd f280 07bb 6499 463d
00000210: 9808 053d 4dbd 03bd 29d5 4f3b 7639 b43c
00000220: 2b98 083c 5b18 453b 7ff9 2bbd 6f3f 1cbd
00000230: 2bad b13c adea 34bd 3154 fe3c 133e 80bc
00000240: 9cf7 49bd 3022 a2bc 0046 a2bc 302b f3bc
00000250: 5d23 5d3c 7089 33bd cbea 6c3c 3181 bb3c
00000260: 07e9 7cbd 7616 76bd a66c 5bbc e3d9 143d
00000270: 64ca 4c3b ff0b ccbc cfb1 003d 9b0b 51bd
00000280: 4e2a 67bc adb7 c3bc 1a71 31bc f893 41bd
00000290: 4521 8bbc 8f68 ecbc 7a8c 7d3c 626e 36bd
000002a0: 984b 393c 7b7b 1cbc 7584 b63c 0bbd aa3c
000002b0: e566 b53a 40f5 243d 299e 09bd c778 2abc
000002c0: cd10 083d 3407 4ebd 3a8a ac3b 7624 833b
000002d0: 4f4e f73c 79bc d0bc b809 29bd 63fb 983c
000002e0: 00a3 5abd 71b7 393c 9af4 ab3c 8bda 453d
000002f0: 46ed 173b 86dd 1a3d edd5 6abc 2872 a63c
00000300: 0344 cfbb fc76 12bc a816 fc3c dfea 873c
00000310: b26c 8a3c 02d1 8c3c 0cad dc3b 7f25 4dbd
0.040517673 0.022729069 0.03741545 -0.0052319937 0.039739642 0.01014897 0.040940695 0.009473059
0.02096451 0.0052995486 -0.02537035 0.028840367 -0.011317209 -0.036608517 0.020847166 0.00832553
0.002628576 0.035480335 -0.013644892 0.0156605 -0.03959224 -0.041002743 -0.028425874 0.044724464
0.004464081 -0.020423569 -0.005812954 -0.013456676 0.043543484 0.013286851 0.0059343055 0.034058094
0.02928218 -0.0031731746 0.021284848 0.025097141 -0.03975324 -0.03482307 -0.013994939 0.028779479
0.004024553 0.0016171435 0.008380969 -0.04749395 0.03943496 0.016912833 -0.032801196 0.008739783
-0.0386664 0.006788583 0.04996277 -0.0033607266 -0.007856618 -0.03226125 0.0332313 0.027548127
0.0003722644 0.023368573 -0.03456338 -0.0016314302 -0.036366172 0.005971378 0.020676756 0.032056466
-0.0021975324 -0.043770097 -0.033151343 -0.02542325 -0.026441127 0.016102323 0.0022368438 0.0100625055
-0.012619124 0.041322812 -0.04211408 0.0044419616 0.0054290486 -0.019074555 -0.01182118 0.0035386595
-0.008759038 0.04093419 -0.045998726 -0.020618435 -0.04035915 0.0077849654 -0.034743793 0.04901364
-0.01604485 0.0022931627 0.013548756 -0.030446403 -0.0059732455 0.01827915 -0.034369387 0.02394715
-0.046638604 -0.0007548995 0.041341938 -0.020331485 0.044328883 0.0040962724 0.017164487 0.0043533472
0.04909231 -0.042427164 -0.045375604 -0.012610328 0.04613814 -0.012350749 0.00020806065 0.009108262
0.027619492 -0.009923062 -0.002558565 0.048813317 -0.043377627 0.008040687 0.022166634 0.037214007
0.008602409 -0.0215342 0.016375337 0.00051655475 -0.024633432 -0.047031887 -0.03861537 -0.03036428
-0.014575974 -0.04692765 -0.0020676223 0.04848613 0.0324789 -0.032162953 0.0031712747 0.022000056
0.008337061 0.0030074331 -0.041985985 -0.038146432 0.021689018 -0.044169117 0.031046005 -0.0156546
-0.049308404 -0.019791692 -0.01980877 -0.02968368 0.013497201 -0.043832242 0.014460276 0.022888752
-0.06174567 -0.060080014 -0.013392603 0.036340605 0.0031248564 -0.024908064 0.03141957 -0.05103646
-0.014109207 -0.023891294 -0.010830188 -0.047260255 -0.016983638 -0.028858451 0.015475387 -0.044538863
0.011309527 -0.009550924 0.022279957 0.020842096 0.0013839869 0.04027295 -0.0335981 -0.010404772
0.033219147 -0.05029984 0.0052655013 0.004002149 0.030188708 -0.025480496 -0.041269034 0.018674558
-0.053378105 0.01133524 0.020990659 0.048304122 0.0023182197 0.037808917 -0.01433323 0.020318106
-0.0063252463 -0.008939501 0.030772522 0.016591487 0.016897533 0.017189506 0.006734496 -0.050084587

model/embedding_3/embedding_lookup f4 [3, 50]
00000000: 30bf 7e3c e2df 423a 12e9 8fbc fc81 22bd
00000010: 3192 29bc 7fd9 15bd cfb1 41bd 6156 af3c
00000020: 6538 833c 02a1 c53b 45c6 cfbc 2d70 e4bc
00000030: d2e5 28bd 3b76 183d b4bd 7d3c be16 053d
00000040: 9e54 08bd 250b 773c b09e 8bbc 87c1 3fbd
00000050: c74c dc3c fce7 d4bc cc03 8abb 8f38 753d
00000060: 8d3c f33c c979 fcbc c6e3 ca3c 8dfa 01bd
00000070: c269 5d3d 0c4c c03c d4fc 043d 4a26 f63a
00000080: 4836 b83c a838 463d d004 063d 0ba8 0f3d
00000090: fde6 133d 9b0f 8abc ef7b 433d 4577 c03c
000000a0: 0754 63bd 2b96 bfbc 686f fa3c 474e a2bc
000000b0: 6be0 f93c 92dc 0ebd 9333 19bd 4fb9 58bc
000000c0: 0af6 64bd 3971 79bc a0b5 07bd ff81 4ebc
000000d0: d19e 373d e50e 60bd 31b5 403c 62e1 423d
000000e0: acb0 183c 17b1 a1bc fb4b 2ebd 14f8 79bc
000000f0: e5cd 17bd 7a31 2bbd c79b 0e3d 53c8 643b
00000100: 62b9 d8bc fe27 1ebd b49c ddbc 57a9 323b
00000110: 7e4e 1a3d f9ce c23c 02d3 12ba 3a12 2b3c
00000120: 2b7a 2b3d abf3 f5bc 143f 4ebb ca27 debc
00000130: 3502 5fbc eeb5 2f3d b040 583d 9383 93bc
00000140: dd85 283c a8cb b7bc 12af 7bbc 87bc 92bc
00000150: 3d1a 073d 143c f73b 56be bdba 7472 1c3c
00000160: 95a9 f2bc 985e cbbc 2d0e 8e3c 3772 103d
00000170: 0441 ef3c e010 fb3c 7839 353d 1f50 783c
00000180: 09e7 c63b 43b6 43bd a1c0 a43c 9f63 00bc
00000190: e177 9a3c 7b10 86bb 5b67 dc3b 1db6 813c
000001a0: fcbc d53c d401 a2bc c84a 493d 18d6 7a3b
000001b0: 716e 3bbd b179 3e3d 3b64 2b3d ec8f 06bd
000001c0: e9e6 0c3d 87fd b03c de6b 173d 938d 2ebd
000001d0: 03d1 d23c a6d2 b9bc 9ae9 afbc bee3 c7bc
000001e0: fa86 2b3d 94c9 423c fea4 3ebd a407 00bb
000001f0: 49a2 8f3b 0477 da3c 38af a23c 8d21 5f3c
00000200: 9803 b2bb 9d61 193d e574 303d 8962 293d
00000210: 3369 0dbd 9787 493d 83ae e3bc 0649 173d
00000220: 935a 0fbd a869 a33c 4769 173c 44e0 953c
00000230: 24fd c7bc 5821 063d 1b96 163d 7185 4c3b
00000240: d549 2ebc 70f7 b03c fc3e 2bbd 3ea1 41bd
00000250: 1835 58bc e95a 31bc
0.015548512 0.0007433874 -0.017567191 -0.039674744 -0.010349796 -0.036584374 -0.047288712 0.021403493
0.016018102 0.0060311565 -0.025363097 -0.02788552 -0.0412348 0.03722213 0.015487123 0.03249239
-0.033283822 0.015078341 -0.017043442 -0.04681542 0.026892079 -0.025989525 -0.0042118784 0.05986839
0.029691959 -0.03081979 0.024766814 -0.031733084 0.054055937 0.023473762 0.03246768 0.0018779722
0.02248682 0.048393875 0.032719433 0.035072368 0.03610896 -0.016853144 0.047725614 0.023494372
-0.055500057 -0.023387035 0.0305707 -0.019812716 0.030502519 -0.03487832 -0.0374027 -0.013227775
-0.055898704 -0.015224748 -0.033132195 -0.012604236 0.044829194 -0.054701705 0.011761949 0.047578223
0.009319466 -0.019737763 -0.04255293 -0.0152569 -0.03706159 -0.04179523 0.03481653 0.0034909442
-0.026455585 -0.03861236 -0.027052261 0.002726158 0.037672512 0.023780333 -0.00056009006 0.010441357
0.041864555 -0.030023417 -0.0031470703 -0.027118582 -0.013611366 0.04289811 0.052796066 -0.018007075
0.010285822 -0.022435978 -0.015361564 -0.017912162 0.032984007 0.0075450037 -0.001447628 0.009548772
-0.029621879 -0.02482538 0.017340744 0.035265174 0.029205807 0.030647695 0.04424426 0.015155821
0.006070022 -0.04778124 0.020111384 -0.0078362515 0.01885599 -0.00409132 0.006726188 0.015833909
0.026091091 -0.019776262 0.049143583 0.0038274582 -0.045759622 0.046502773 0.041843634 -0.0328521
0.0343999 0.021605266 0.036968105 -0.042615484 0.02573443 -0.022683453 -0.021473695 -0.024400588
0.04187677 0.01188888 -0.046544068 -0.0019535804 0.0043833596 0.02666808 0.019858941 0.013618839
-0.0054325573 0.037446607 0.04308023 0.041353736 -0.034524154 0.049201574 -0.027793175 0.036934875
-0.034998488 0.019947842 0.009241409 0.018295415 -0.024412699 0.032746643 0.036764245 0.0031207467
-0.01063772 0.021602362 -0.041808113 -0.047272913 -0.013196252 -0.010824897

model/embedding_2/embedding_lookup f4 [2, 50]
00000000: c908 adbc 910d a23b cc7f 35bc d0c6 83bc
00000010: 33f8 30bc 2cd1 783c eac7 073d 6770 f7ba
00000020: 77e0 9ebc 8ec4 06bd d5f1 01bd f707 a33c
00000030: 6048 023d d26d b2ba 9a49 a83b f22e 1cbc
00000040: 52b3 623d 8b40 943c 4863 4bbd 51e2 06bd
00000050: 9342 8abc a4c5 ff3c 5a58 593c bed3 67bd
00000060: ea9c 05bd 5efe de3b 134a c7bc abef d23c
00000070: 2d87 9e3c 1c42 273d 393c 3bbd 4599 f6bc
00000080: 6770 c8bc 0e0c 9fbc 86e0 19bd 939a 50bc
00000090: c57c 693b 7849 22bc 6b23 09bc 1eb1 233c
000000a0: 527c 443c f860 1f3d 4366 0b3d 18c9 53bb
000000b0: 03ac ae3c 4e3d 1a3d 1c8b 143d eddb 0b3d
000000c0: 787c 1539 9465 e83b 0e24 58bd ddb9 04bd
000000d0: 3ad2 bd3a 5fdb bd3c b803 aebb 3d3e 333d
000000e0: ed3a 6a3c 6c2c 6e3b c4bb 073d b831 22bb
000000f0: dad3 123d 20a9 493d 5a3c b43b 627b 29bc
00000100: 83c4 d0bc afb1 4a3d 43d1 be3c 4020 f2bc
00000110: b3f3 3c3c d9f3 32bd 24f2 babc a600 763c
00000120: 99ad b13b 9160 92bc 6a7a 0cbd db64 083d
00000130: e24c 55bd 2880 0ebd f5d9 0dbd b1fd 473b
00000140: 6520 67bc e132 7e3a 926b 0dbd b2a9 9dbc
00000150: 78a5 ca3c 80b9 8fbc ee7c 7dbb 579f 8ebc
00000160: 9610 3fbd c0a5 3cbd 3843 153d ad10 343c
00000170: 8518 593d d054 3d3b ba35 09bb c4ae b23c
00000180: 02d7 fc3c c030 c83c 4719 5abb d699 9fbc
-0.021122353 0.004945465 -0.011077832 -0.016086012 -0.010801363 0.015186589 0.033149637 -0.0018878103
-0.019394143 -0.032902293 -0.03172477 0.019901259 0.031807303 -0.0013613051 0.005135727 -0.009532677
0.055346794 0.018097183 -0.04965523 -0.032930676 -0.016877448 0.031222172 0.013265694 -0.056598417
-0.032620348 0.0068052253 -0.024327314 0.025749048 0.019351566 0.04083453 -0.04571173 -0.030102381
-0.02446766 -0.019414928 -0.037567638 -0.012732166 0.0035627347 -0.009905212 -0.008370261 0.0099909585
0.011992531 0.038910836 0.03403307 -0.0032315906 0.021322256 0.03765612 0.036265478 0.034145284
0.00014256116 0.007092187 -0.05276876 -0.032403816 0.0014482208 0.023175893 -0.005310502 0.043760527
0.014296276 0.0036342395 0.03313805 -0.0024748873 0.03584657 0.049233556 0.0055003585 -0.010344358
-0.02548433 0.04948586 0.023293143 -0.029556394 0.011532712 -0.043689582 -0.02282054 0.015014803
0.005422306 -0.017868312 -0.03429643 0.03329931 -0.052075274 -0.034790188 -0.03463169 0.0030516202
-0.014106845 0.00096969126 -0.034526415 -0.019245956 0.024737105 -0.017544508 -0.00386792 -0.017409964
-0.046646677 -0.04605651 0.036441058 0.010990304 0.0530019 0.0028889664 -0.0020936565 0.02181185
0.030864242 0.024437308 -0.0033279227 -0.019482534

model/dense/BiasAdd/ReadVariableOp f4 [128]
00000000: 7494 ddbc 4a2f fdbc d138 ea3c ce00 633c
00000010: a760 a9bc f46c 40bc 04e2 aebc e01a 25bd
00000020: 0047 09bd 2b52 0e3c 57ec f33c fc87 c0bb
00000030: 2cbe 15bd 8360 c3bc 9123 173d f6c9 c13b
00000040: 7250 27bc 07c6 153c 1782 243d 5475 82bc
00000050: cf83 55bc 0cc3 85bc c8bb 3f3c 442b 7a3c
00000060: 46a7 5fbc 12bc 103d 597f 07bc 4be7 453c
00000070: c948 acbc 3f01 533d 27aa e73c 03f6 3dbc
00000080: c4cb d33c 9ed6 6b3d 339e ca3c ed44 923c
00000090: 737d 143b f6bd 353d 636e 88bc c870 703b
000000a0: 7808 a63c de98 d3bc f5ae 8b3c c496 123d
000000b0: 8a73 f63c e552 f6bb ae9d abbc fe53 d9bc
000000c0: 8b8b 873c eb7b 5cbc 081a 4fbc df93 6abb
000000d0: 58ab e0bb 659c 97bc fbb2 aa3c 1332 4dbb
000000e0: f148 b5bb bcef c63c 82ae c1bc 7ef6 2c3c
000000f0: c0f7 26bd 95aa 7fb9 906a db3c 6717 4cbd
00000100: 5189 553b c243 223c 5829 8bbb 7526 01bd
00000110: d409 4cbc 8a68 60bc 7a51 3cba 9f27 27bc
00000120: 25ed c4bc acd0 babc 603d 4d3d 61ec ae3b
00000130: ade0 313b 5b0d 1c3c b0e1 4dba 77d7 afbb
00000140: 7525 2fbd 5f97 81bc b557 3f3c f752 ffbb
00000150: 81a1 b53b 692f 0dbd 5bbf a43c 137a a2bc
00000160: 6f3a 833c c38f eebc 4132 babb 2517 0b3b
00000170: 2013 7b3c cad1 81bb 6670 dc3c dbc0 883c
00000180: e70b ca3c 5371 bb3c e418 6bbd 66b0 5b3d
00000190: 62b7 f2bb 9b99 823c b69c efba a83c c2bc
000001a0: 3b9a 4ebb 457f a43c 6f96 3fbd 0aa2 e93c
000001b0: 4afb c23a c6d6 64bb 6554 fbbc 225c 35bb
000001c0: 3ac5 aabc 69b3 87bc 4029 f43b 124b c33b
000001d0: 7d2e ccbc 89ba ef3b 5d5e 0dbd 182e b03c
000001e0: 132b 333b 6d12 a8bc a993 063d 7a6b cfbc
000001f0: 1a72 e23c 939b 5b3b cd1a 193b b2fb 153c
-0.027048327 -0.030906338 0.028591545 0.013855172 -0.02067597 -0.011744726 -0.021348007 -0.040308833
-0.033514977 0.008686583 0.029775782 -0.0058755856 -0.036558315 -0.023849731 0.036899153 0.005913968
-0.010212051 0.009141452 0.040163126 -0.015925087 -0.013031914 -0.016328357 0.011702485 0.015269104
-0.013650721 0.035335608 -0.008270108 0.01207907 -0.0210308 0.05151486 0.028279377 -0.011594298
0.025853999 0.05757772 0.024733638 0.017855132 0.0022657781 0.044370614 -0.016654199 0.0036688317
0.02026771 -0.025829729 0.0170512 0.035788313 0.03008439 -0.007517206 -0.020949211 -0.026529308
0.016546031 -0.013457279 -0.012640484 -0.0035793704 -0.0068563633 -0.018507192 0.020837298 -0.0031310364
-0.005532377 0.024284236 -0.023642782 0.010556815 -0.040763617 -0.00024382242 0.026784211 -0.049827006
0.0032583068 0.00990385 -0.004246872 -0.031530816 -0.012453515 -0.013696799 -0.0007183772 -0.0102023175
-0.02403886 -0.02280458 0.05010736 0.005338237 0.0027141974 0.009524669 -0.00078537595 -0.0053662616
-0.04276033 -0.01581925 0.011678626 -0.0077918726 0.0055429344 -0.034469042 0.020110777 -0.0198336
0.016019074 -0.029121285 -0.0056822603 0.0021223512 0.015324384 -0.0039617764 0.026909065 0.016693523
0.024663879 0.022881186 -0.057396784 0.053635024 -0.007407115 0.015942385 -0.0018280956 -0.023710564
-0.0031525034 0.020080218 -0.046774324 0.028519649 0.0014875915 -0.0034918054 -0.03067989 -0.0027673324
-0.020845998 -0.016565042 0.0074512064 0.005959877 -0.024924511 0.007315938 -0.03451382 0.021506354
0.0027338907 -0.020516599 0.032855663 -0.025319804 0.027642298 0.0033509478 0.0023361922 0.009154247

model/dense/MatMul1 f4 [128, 300]
00000000: dd94 8d3d 01b6 8d3b 3470 b2bd 9759 58bd
00000010: 1677 9b3c a010 823d a0a1 953c 18ba ac3d
00000020: 4dd9 cb3d 0e49 d0bc ebf0 00bd 1f3a aebd
00000030: 2ff1 5abd ebf0 e7bd 3384 d1bd db29 adbc
00000040: a2ed be3d cbc7 713d d38c 12bd 7972 8abd
00000050: fcdd cc3d ff67 d4bd 8274 333c b198 11bd
00000060: 3273 423d e479 e2bd adba 643d b7b0 62bd
00000070: 6e1f 983d 64cc b8bd 7dd8 f6bb 0542 8e3d
00000080: b219 babd 3465 0e3c 6622 89bd 9316 d6bd
00000090: 7eb7 c2bd 86d4 da3d 05ce b93c c477 92bc
000000a0: 855b a03d a439 29bd fbcd a2bd efb1 483d
000000b0: 22c6 573d 956f cabd 6aae 9b3c cbbb ebbd
000000c0: d18d 8fbc 6f00 5c3d 4c72 ea3d 43cd 29bd
000000d0: ae44 cebd 29f2 f9bc 8a5e 89bd de64 22bd
000000e0: a9de 173d 9107 993d 5b7f 1fbd 8c6a ef3d
000000f0: 0dfa e93c fd75 22bd 9b10 51bd b675 96bd
00000100: 3cd0 953c 099f d0bc 1d86 ae3c aa33 c93d
00000110: a8b4 893d cb4b 233c b137 323d d8e5 8cbd
00000120: afed debd 820d 6d3d 0edd ac3a 4b2b e73c
00000130: e46f 943d d3ba e9bc 0542 efbd 62d2 5c3d
00000140: 7ad8 9d3d 04fe 9b3c d7ec 593c e790 453d
00000150: 20f7 c2bd aec5 58bd 802c a0bd 76f3 e33d
00000160: 7dfa 533d 05fb b83b 20a8 f0bb a754 823d
00000170: c510 e83d 4781 b6bb ab3e 26bd 9968 cb3d
00000180: b71b 84bd 4de0 07bd f9b3 bd3d 459a 0dbd
00000190: c214 6bbc 1553 95bd a8c0 aa3c 3089 b7bd
000001a0: 6548 edbd fd11 7d3d b191 a6bd df49 b4bd
000001b0: 3713 debc 1d14 cd3d 677e d93c 603e 26bd
000001c0: c70a 37bd 7daa 833c a0d5 283d 8308 dfbb
000001d0: 52ae cf3d 1abd c83d 9b0c 67bc d5af 373d
000001e0: e889 1d3d de41 93bd 9d52 c73c d1f2 613c
000001f0: 4476 683d 4900 1c3d 6337 d03d 3ef8 b6bd
00000200: 9642 aebd eb27 bb3d 0002 c8bd 8c57 da3d
00000210: 93f1 ac3d e5f5 b7bd 365a dcbd 89cc debd
00000220: 0016 913d 7a45 0f3d 5bc1 d3bd d24f b83d
00000230: 9e0c a63c f933 09bd c96e ed3d e76f a7bd
00000240: 2978 a33c 03f2 61bd d36c 123d 2521 513c
00000250: acce b53d ffab 04bd f1d8 e2bc ad97 5c3d
00000260: dd7d 1abc a456 e83c 534f cc3d 536c aebd
00000270: bee2 553d 83e8 e7bc 7b1c d53d 31e7 8bbb
00000280: b1e0 09bd aafc 29bd d001 85bd c890 d23c
00000290: 75f1 343d 4292 b43d a03a 483d 462d c3bc
000002a0: c8c0 51bd 77f7 a0bc c592 ee3c 85b3 cabd
000002b0: 99bd 173d b72d 4abd 235b 8bbd 0825 7a3a
000002c0: 255f 4e3c 32c5 3cbd 850f 26bc 12ed bc3c
000002d0: f2ec e33d 071c b8bd 14d8 2abb 20ed 393d
000002e0: 0cc2 4e3d 69a9 943d a428 123d 500d ca3d
000002f0: 953d 7e3d 3da9 95bc 5c94 6c3d 4df7 c4bd
00000300: 3be3 393d a810 183d 346b 193d 3f3c 803d
00000310: f717 e2bc 1c7c 77bd 9e7f 893c 7898 93bd
00000320: 2aa1 c93d 70fb 0d3d 011b 8abd a6f2 dbbd
00000330: 57a0 653a 3085 80bc 3877 dc3d 0e04 87bd
00000340: 90c0 44bd 7b9e aabc 5f2e 103b cde6 ac3d
00000350: ee05 a3bd a590 063d ff5c f53c 38ee afbd
00000360: bc19 d7bc 3aab e23d 78c6 41bc ad35 97bd
00000370: dcde bbbd a277 3dbc 9348 f13d 1183 f0bd
00000380: adc5 10bd 899a d53c 2f5a cdbd 037e 30bd
00000390: c1c1 1e3d f65c 37bd 2a26 8d3d 1ead 7cbd
000003a0: 02f4 033d 7e3f a93d 778a c43d 082a debd
000003b0: e70e abbd 7ada abbd 7816 e3bd 9a44 8fbd
000003c0: 4380 bbbd de99 a03c fa4a ea3d 2075 f4bc
000003d0: da20 29bd cef4 da3a 3a3f bd3d dcb9 cbbd
000003e0: b806 ebbd 06eb 343d c2a0 c6bd ccb4 85bd
000003f0: 2993 cdbc 3820 ea3b dfd9 5e3c b3d4 80bd
0.06913159 0.004324675 -0.08712807 -0.052819815 0.018977683 0.06350827 0.018265545 0.08433932
0.09953556 -0.02542546 -0.031479757 -0.085071795 -0.053452667 -0.11325248 -0.10230293 -0.021138122
0.093226686 0.059028428 -0.03577883 -0.06760115 0.10003278 -0.10371398 0.010953071 -0.03554601
0.04747314 -0.11058405 0.05584209 -0.05534431 0.0742787 -0.090233594 -0.0075331316 0.06946186
-0.09086932 0.008691121 -0.06696014 -0.104535244 -0.095076546 0.10685067 0.022681246 -0.017879374
0.07829956 -0.041314736 -0.07949444 0.048997816 0.05267919 -0.09884564 0.019004066 -0.11510428
-0.017523678 0.05371135 0.11447582 -0.04145552 -0.10071693 -0.030510979 -0.06707485 -0.039646976
0.03707758 0.07472146 -0.038939815 0.11690244 0.028561616 -0.039663304 -0.051041227 -0.0734667
0.01828777 -0.025466459 0.021304185 0.09824307 0.067239106 0.009966801 0.043510143 -0.06879777
-0.10885178 0.05787421 0.0013188438 0.028218886 0.07247904 -0.028531468 -0.11682514 0.053911574
0.07707305 0.019042023 0.013301096 0.048233893 -0.095197916 -0.052922897 -0.07820988 0.11130421
0.051752556 0.0056451582 -0.007344261 0.063638024 0.113313235 -0.0055696103 -0.04058711 0.0993206
-0.06450599 -0.033172894 0.09262843 -0.03457095 -0.014348211 -0.07291237 0.020843819 -0.08961713
-0.11586074 0.061784733 -0.08133257 -0.08803152 -0.027108772 0.10013602 0.026549531 -0.04058683
-0.044688012 0.016072506 0.041219354 -0.0068064346 0.10140671 0.09801693 -0.0141021265 0.04484542
0.038461596 -0.071902975 0.024331385 0.013790802 0.056753412 0.03808621 0.10166814 -0.08934067
-0.08508794 0.09138473 -0.097660065 0.106612295 0.08444514 -0.089824475 -0.10759394 -0.10878856
0.07084274 0.034978367 -0.10339614 0.089995995 0.020269688 -0.03349683 0.11593396 -0.081756406
0.019954758 -0.05516244 0.035748314 0.01276425 0.0887731 -0.03239059 -0.027691336 0.053855587
-0.009429422 0.028361626 0.099760674 -0.08516755 0.05221819 -0.028309112 0.10405823 -0.0042695035
-0.033661548 -0.041500725 -0.06494486 0.025703803 0.044175584 0.08816959 0.048884034 -0.023825299
-0.05120924 -0.01964925 0.02912272 -0.09897522 0.03704605 -0.049360003 -0.06804492 0.0009542261
0.012595926 -0.046086498 -0.010135536 0.023062263 0.11129178 -0.08989721 -0.0026068734 0.045392156
0.050478026 0.07258875 0.03568329 0.098658204 0.062070448 -0.018269176 0.057758674 -0.096174814
0.04538272 0.03712526 0.037455752 0.06261491 -0.027599318 -0.060421094 0.016784485 -0.072068155
0.09845193 0.034663618 -0.06743432 -0.10739641 0.0008759549 -0.015688509 0.10764927 -0.0659257
-0.048035204 -0.020827523 0.0022000296 0.08442459 -0.079601154 0.032852788 0.02995157 -0.085903585
-0.026257388 0.11067815 -0.011827104 -0.07383285 -0.091733664 -0.011564167 0.117814206 -0.11743749
-0.03534477 0.026074665 -0.10026967 -0.043088924 0.038758997 -0.04476639 0.06892045 -0.061688535
0.032215126 0.08264063 0.095967226 -0.108478606 -0.08352452 -0.083912805 -0.1108827 -0.069955066
-0.09155323 0.01960462 0.11440082 -0.029841006 -0.041291095 0.0016705038 0.09240575 -0.09947559
-0.11475891 0.04416945 -0.09698631 -0.06528625 -0.025094585 0.007144954 0.013601749 -0.06290569

model/dense_1/MatMul f4 [64, 128]
00000000: 6c07 243d c5dc c23d 736c 133e 27ec 383d
00000010: 4c07 2abe d1ad 34bd 9fc7 633c c65a 17be
00000020: 7263 15be be65 163d e400 edbd 6b73 2abd
00000030: bd3c 02bd 183d 123e 142f bb3d d222 753d
00000040: 5c02 9c3d 0633 acbd 9020 f93d d6a2 bcbd
00000050: c686 933d 291d cf3d a028 c6bd 9b2f e73d
00000060: 64ac 88bd 4676 18bb 73f0 0dbe fafc 03be
00000070: c470 073e 0bef 29bd 950c 283e a1f0 17bd
00000080: 774c c43b 79de 2f3e 5e84 a33d f741 61bd
00000090: a5b1 91bc e230 f2bd 5cf3 85bc c580 a13d
000000a0: d5ba 3cbc 05e3 d5bd 2b91 07be 50ba fcbb
000000b0: 11ec 303e a0eb d8bc 9b6f 0fbe 69e9 ff3d
000000c0: e886 2a3e 2cf3 23be 1833 493c 4a41 b23d
000000d0: a7e3 593d c18a 3fbd 8dcd 1c3e 65f3 18be
000000e0: f5c4 a6bd 5e50 2dbd a048 333e 9e24 5e3d
000000f0: b2ac e9bd 3920 8bbd 13a7 0cbe d8e0 e73d
00000100: 16ee c53d bc71 8d3d bc97 9abd a17b 6abd
00000110: 691c 1bbe 1267 b53d 3c38 fb3d 07d9 203d
00000120: 5ee0 40bd 61ee 4b3d 418d 69bd ad9e 1bbd
00000130: dc77 f5bd 7736 483d 4be6 8abc d742 2ebe
00000140: 327d 97bd aa95 87bd 05cd 8fbb 1119 84bd
00000150: 2a59 96bd 0f0d d1bc 0264 f8bd ce46 533d
00000160: 345d 033d 228c 90bc 09e1 30be 837c 0e3e
00000170: 1902 a93d 48f9 7e3d 5ad9 34be d25d 08bd
00000180: f0c1 d43d 68c5 073d 7308 e9bd 49e2 00be
00000190: 19dd 2f3e 0c8e 33be dabb 01be 5581 573d
000001a0: 3ae6 11bd 4565 0d3d b47e 34be c264 19bd
000001b0: 6dfd 773d 4c26 9b3c 32f4 103e f7df e83d
000001c0: d72b 07be 7ca8 38ba 3446 93bd 311e da3b
000001d0: a498 ccbd 11cd d83d 64e5 cb3d 2689 23bd
000001e0: 8024 263e e0a6 d53d de73 853d 13cb 33be
000001f0: 0123 05bd b5f7 033e 99c2 06be de61 e6bd
00000200: ec02 343e 814a b1bd 9af6 05be 6d1f 933c
00000210: 399d 223e 4b6f 21be 9c1f 04bd 8491 0dbe
00000220: db82 17be d44f 183c d011 ef3d d478 86bc
00000230: 49ac 28be 5027 bebc eb82 1f3e ea88 debd
00000240: a1e0 da3d a4d9 5ebd 936c 193e 29f7 e13d
00000250: 10c7 05be ce83 54bd 10a7 acbd b548 13bb
00000260: 4cf5 123e 9d57 e43d f2e7 323d 2759 99bd
00000270: b7a5 223e c7d5 683d ff51 1e3e aa64 2e3e
00000280: 4d31 903d a181 1f3d 9aba e53d a9fb 8ebd
00000290: 4fe6 25bc cd49 adbd 4258 04bc 7d21 223e
000002a0: 14d4 313e 6598 a1bc 2fa7 ebbd 2796 c73d
000002b0: b128 ac3d 083c 413d 1a42 823c fab4 3c3d
000002c0: 3a34 9e3c 49d6 d23b 2aa2 083d 23d4 1ebe
000002d0: 8c04 d73d 6c5e 053e e936 8cbd 1fe3 cfbd
000002e0: 32e8 ac3d 845d 263e b64b 41bd 167d d6bd
000002f0: 64a4 9ebc a875 373d 583e 2dbe 2211 f7bd
00000300: 8826 183e 198c 143e 4345 14bc c4f9 2dbe
00000310: 04f1 2b3e eb98 9a3b 14f3 d5bd 0b64 a23d
00000320: f477 32be 61df 13be d25e fb3d e042 103e
00000330: 92ab d4bd d782 42bc 06c3 f93d e40e 0d3e
00000340: 9037 35be 53ed 2cbe 9cf0 8f3d c412 123e
00000350: 97e4 1bbe 8d72 7239 8108 edbd b16d d4bd
00000360: ae7b fb3d ad96 243e a15e a0bc f690 f73d
00000370: 7f39 32be ab85 d93b 9def 183e bdf5 413d
00000380: 3093 0cbe 17a3 b238 237e 2fbe 9930 9e3d
00000390: 6acb 62bd 52ec 09be 6183 12be 3684 25be
000003a0: f924 1abe d265 9fbd 3d6f 56bd a5ab b4bb
000003b0: 22b2 92bd b1ce 6f3d d9d5 06bd 8aea d7bc
000003c0: 3fd4 fe3d 2daf 8ebc a443 fbb9 a8ca 18be
000003d0: 5305 db3d 6a5d 9b3d e2e3 e83d f719 c13d
000003e0: b414 053e de0c d73d 1ded 8a3d 924f 323e
000003f0: d64f 7c3d 79b8 313c dbcd a93d 7cda f93d
0.04004614 0.09514765 0.14396839 0.045147087 -0.16604346 -0.044111077 0.013902574 -0.14780721
-0.14588717 0.036718123 -0.115724355 -0.041613977 -0.031796206 0.14281118 0.09139839 0.05984766
0.076176375 -0.084081694 0.12164414 -0.09210746 0.0720344 0.10112984 -0.09675717 0.11288377
-0.06673506 -0.0023263856 -0.13861255 -0.12889472 0.1322661 -0.041487735 0.1641105 -0.037094716
0.0059905606 0.1717471 0.079842314 -0.05499455 -0.017784903 -0.1182573 -0.016351394 0.07885889
-0.011519154 -0.10443691 -0.13238971 -0.00771264 0.17277552 -0.026479542 -0.14007418 0.12495691
0.16653025 -0.16010731 0.012280248 0.08703859 0.05319562 -0.046763185 0.15312786 -0.14936598
-0.08143035 -0.042312972 0.17508173 0.05423414 -0.11409892 -0.06793255 -0.13735609 0.113221824
0.09664552 0.06906459 -0.07548472 -0.057246808 -0.15147556 0.0885755 0.12266585 0.039269473
-0.047088973 0.049787883 -0.057019476 -0.037993122 -0.11985752 0.048880067 -0.016955515 -0.17017685
-0.07396926 -0.06620343 -0.004388454 -0.064500935 -0.073412254 -0.025518922 -0.1212845 0.051581196
0.032071307 -0.017644946 -0.17273344 0.13914685 0.08252353 0.062249452 -0.17661038 -0.0332926
0.10388553 0.033147246 -0.11378565 -0.12586321 0.17174186 -0.17534655 -0.12669316 0.052613575
-0.03561995 0.034520406 -0.17626458 -0.037449606 0.06054442 0.01893916 0.14155653 0.11370843
-0.13200317 -0.0007044149 -0.071911246 0.006656431 -0.099900514 0.10585988 0.09955862 -0.039925717
0.16224861 0.104322195 0.065162405 -0.17557935 -0.032504085 0.12887461 -0.1316017 -0.112491354
0.1757924 -0.086567886 -0.13082352 0.01795932 0.15880288 -0.15765111 -0.032256708 -0.13825041
-0.14796011 0.009296376 0.11673319 -0.016415037 -0.16471972 -0.023212105 0.15577285 -0.10865958
0.10687376 -0.054406777 0.14982824 0.1103347 -0.13064218 -0.05188351 -0.08430302 -0.0022473757
0.14351386 0.111495234 0.04367823 -0.074877076 0.15883528 0.0568445 0.15460967 0.17030588
0.070406534 0.038941983 0.11217232 -0.06981594 -0.010125711 -0.08461342 -0.008077683 0.15833087
0.17366058 -0.019725988 -0.11506497 0.09745436 0.08406199 0.04717639 0.01590066 0.04607103
0.019312013 0.006434236 0.033357777 -0.15510611 0.10498914 0.130243 -0.06846411 -0.10150742
0.08442725 0.16246611 -0.047191344 -0.10473077 -0.019365497 0.04478994 -0.16918314 -0.12063815
0.14858449 0.14506568 -0.009049716 -0.1698981 0.16791159 0.0047179363 -0.10446754 0.07929238
-0.17428571 -0.14440681 0.12273945 0.14088011 -0.10384287 -0.011872015 0.12195401 0.13775212
-0.17696977 -0.16887407 0.070283145 0.14264971 -0.15223919 0.00023121592 -0.115738876 -0.103724845
0.122794494 0.16073103 -0.019576373 0.12088196 -0.17404746 0.006638249 0.14935155 0.047353495
-0.13728023 8.518079e-05 -0.17137961 0.07724113 -0.055369772 -0.13469055 -0.1430793 -0.16163716
-0.15053166 -0.077830926 -0.05235218 -0.0055136257 -0.071628824 0.058546726 -0.032918785 -0.026356954
0.124428265 -0.017417515 -0.00047924847 -0.14921057 0.10694375 0.07586177 0.1137159 0.094287805
0.12996179 0.10500501 0.06783507 0.17413166 0.061599575 0.010847204 0.08291217 0.12199876

model/dense_2/MatMul f4 [1, 64]
00000000: 3fa0 1a3e 593c 4e3e 2cf1 183e 81ff 313e
00000010: 8a47 463e 9ae0 793e 77ba 153e 9b88 69be
00000020: 4e6b 4c3e 98e7 02bd 1610 853e 7006 1e3e
00000030: 6df4 023d df88 9c3e 4b9a b43d f694 d13d
00000040: 3441 84bd c0ae 47be 2d1c 9c3e 7ef3 1d3e
00000050: 1855 f43d 5b26 fdbd e083 3d3e 3dae 54bd
00000060: 7fe9 2b3e 53f3 1dbd eb7a e3bd 30a0 0fbe
00000070: ce09 68be 5bf6 24be 3bea 423e 4872 753a
00000080: 4fe9 873e 9057 8ebe 7e8e 9b3e 4b83 803c
00000090: 0b2c aa3c fd84 66bd ad61 40be ed7d 3cbd
000000a0: 45eb d7bd b6d5 823e 1a92 bd3d 1cad 103e
000000b0: 2b6a 95be 3177 54bd 5d7b 173e f570 773e
000000c0: 6c95 2e3e e9f7 5abe 1b28 52be 6ac3 83be
000000d0: 5fea 85bd 7ee0 1b3e 9011 6ebe 567c f1bd
000000e0: a892 903e 64c9 7a3e 67ae 5e3e 2656 7fbe
000000f0: 04ef 593e 0a44 93be a5a0 3e3d ae41 993e
0.15100192 0.20140208 0.1493575 0.17382623 0.19363227 0.24402085 0.14621912 -0.22806017
0.19962808 -0.031959146 0.25988835 0.15432143 0.031971384 0.30573174 0.088184915 0.1023349
-0.06457749 -0.19500256 0.30490246 0.15424916 0.11930293 -0.12360831 0.18507338 -0.05192398
0.1678829 -0.03856213 -0.11107429 -0.1402595 -0.2265999 -0.16109602 0.19034664 0.00093630375
0.26545188 -0.2780118 0.3038215 0.015687605 0.020772954 -0.05627917 -0.1878726 -0.04601853
-0.10542921 0.25553674 0.09256382 0.14128536 -0.29182562 -0.051871482 0.14793153 0.24164183
0.17049187 -0.21383633 -0.20523112 -0.25735027 -0.06538843 0.15222356 -0.23248887 -0.11791293
0.2823689 0.24490887 0.21746217 -0.24935207 0.21282583 -0.28762847 0.04653992 0.29932922
