Kucingku_model.tflite (tflite, 213724 bytes, 10 tensors)

model/embedding/embedding_lookup f4 [2, 50]
000000 70 e8 b0 bb a5 ba 01 bd c7 1a 4f 3c 71 84 7b 3c
       -0.0053988025 -0.03167214 0.012640662 0.015351401
000010 3a e3 3e bc 88 9c 7d 3c ad 3d f4 bb b8 5d dd bb
       -0.011650855 0.0154792145 -0.0074536414 -0.006755557
000020 0c ff 81 bd fa 4e 31 bd 40 e8 13 3b ef 96 e4 3c
       -0.063474745 -0.04328821 0.0022568852 0.027904002
000030 28 5e c7 bc 70 f5 f1 bc c1 a8 1d 3c 4c 3f 2f bd
       -0.02433689 -0.029535979 0.009622754 -0.042784974
000040 84 bf ea 3c ee 99 0a 3c 99 02 9c bc 80 61 05 bd
       0.028655775 0.008459551 -0.019044207 -0.032563686
000050 0a f1 aa 3c 75 03 31 bd 80 22 09 bb e5 b0 2f 3d
       0.02086689 -0.043216188 -0.0020925105 0.04289331
000060 fe 56 6a bc 00 12 31 bc 4a 24 98 38 8f c7 08 3d
       -0.014302967 -0.010807514 7.254684e-05 0.03339344
000070 e2 d4 39 3c eb a7 09 bc d7 2c 28 bd d5 36 37 3d
       0.011342259 -0.008401851 -0.041058388 0.044730026
000080 c3 9e 64 bd 7b 97 08 3d 3c f5 81 ba a5 ff da ba
       -0.05581547 0.033347588 -0.0009915004 -0.0016708268
000090 18 3b 0d 3d a2 3c 4e bc 49 36 11 bc 90 ba d8 3c
       0.034480184 -0.012587698 -0.00886304 0.026456147
0000a0 53 ff bd ba cc 6c 46 3b ee c1 f5 3c 60 e0 5b bd
       -0.0014495648 0.003027725 0.0299997 -0.053680778
0000b0 7c 9f 50 3c db c6 d2 bc 06 74 55 bc 0f 28 b8 bb
       0.012733337 -0.025729587 -0.01302815 -0.0056200097
0000c0 c8 ba dc bb c8 63 14 bd 29 fc 77 3d 25 94 a5 3c
       -0.0067361332 -0.03622797 0.060543213 0.020212242
0000d0 cd fc e4 3c ae 53 2c bd fe 6f 94 ba 00 41 92 3b
       0.027952576 -0.04207199 -0.001132488 0.004463315
0000e0 18 1f 21 3d 1b 04 58 3d e8 e7 03 3d b3 76 de 3c
       0.039336294 0.05273829 0.032203585 0.02715621
0000f0 2d 43 0b 3d 0c 49 98 bb d7 5b 7b bc 68 16 35 3d
       0.03399961 -0.0046473797 -0.015341721 0.04421082
000100 aa 79 6f bc 54 a0 9a 3c 3d 04 f3 bc 31 29 c7 bc
       -0.014616409 0.018875279 -0.029665107 -0.024311634
000110 5c 93 2a bc e7 c5 2c bc 61 f4 f5 bc b5 c8 4d bd
       -0.01041111 -0.0105452305 -0.030023756 -0.050240237
000120 fd b6 12 bd d0 92 0f 3d 62 5c 1d 3c 7f e7 d6 bc
       -0.035819042 0.03505212 0.009604545 -0.026233433
000130 01 f1 0d 3d b8 e8 60 bd 0f 62 c5 3c 63 7c 33 3d
       0.034653667 -0.054909438 0.02409461 0.043819796
000140 dc 78 25 bd 95 89 b0 bc 98 42 11 3d 82 be 07 bb
       -0.040398464 -0.02154998 0.0354639 -0.0020712917
000150 12 6e 4e bc 1f 57 ef bc d4 65 2e 3d 1b 62 a6 bc
       -0.012599485 -0.029216347 0.04257758 -0.020310452
000160 bb eb 14 3d 32 80 f7 3c 0c 70 b1 3c 75 72 0e bb
       0.036357623 0.030212495 0.021659873 -0.0021735702
000170 32 ed 0e bd 37 c9 e2 3b f7 f3 74 bc ad 68 15 3d
       -0.034894176 0.0069209593 -0.014950744 0.03647678
000180 70 e1 f1 3c a9 90 25 3d c7 08 60 3d b5 8d 05 bd
       0.029526442 0.04042116 0.05469587 -0.032605845

model/embedding_1/embedding_lookup f4 [85, 50]
000000 82 f8 ff 3c 1a fe 9e 3c 62 d2 93 3c cd 57 1f bd
       0.031246427 0.019408274 0.018044654 -0.038902093
000010 34 46 61 3c 00 24 a0 bb b3 25 45 bd 8d 91 04 3d
       0.013749648 -0.004887104 -0.048131656 0.03236537
000020 e0 5f f1 bc 02 f2 d7 3c 64 98 06 bd 58 3d 2c bc
       -0.029464662 0.026360516 -0.032860175 -0.010512672
000030 83 3c 46 3d 58 a8 73 bc dd c8 07 3d 53 e8 b6 bc
       0.048397552 -0.014871679 0.033150543 -0.022327578
000040 5d 52 17 3d ce cc cc 3c e9 5c 21 3d 9a f6 c8 bc
       0.036943782 0.025000002 0.039395247 -0.024531651
000050 3a fb ef 3c 4c bd 6b 3c c0 32 94 ba 82 5c 96 3c
       0.029294599 0.014388394 -0.0011306629 0.018354658
000060 63 25 06 3d 83 3a 39 3d d8 37 0d bc e2 8c 92 3c
       0.0327505 0.045221817 -0.008619271 0.017889444
000070 79 46 11 3d c0 94 62 bc a0 55 81 bc 60 ba 4a bd
       0.0354676 -0.01382941 -0.0157879 -0.049494147
000080 58 b6 62 bc dc 04 65 3c 50 09 b1 bb d3 7d fd bc
       -0.013837419 0.013978209 -0.0054027215 -0.030943787
000090 00 02 6a 3b 29 79 01 3d 41 99 03 3d a2 87 bd 3c
       0.0035706758 0.031609688 0.032128576 0.023135964
0000a0 47 45 a6 bc 1d 96 26 bd 42 2a 89 3c 93 e9 af bc
       -0.020296706 -0.040670503 0.016743783 -0.021473682
0000b0 b0 0b c2 bb 00 5c 4e 3a 4c 63 69 bc 4c b4 12 bc
       -0.0059218034 0.00078719854 -0.014244866 -0.008954119
0000c0 20 34 fc bc 0d 7c 30 bd a9 fc 37 3d 99 0e 2b 3d
       -0.030786574 -0.043087054 0.04491869 0.04176197
0000d0 c6 91 dc 3c 5a a3 f5 bc 91 ee 49 3d 06 e0 80 bc
       0.026924979 -0.029985119 0.04929978 -0.015731823
0000e0 47 5d ab bc 52 ef a5 3c 81 21 26 3d bd bc 13 3d
       -0.020918502 0.020255718 0.040559296 0.036068667
0000f0 00 20 d8 b9 bd 78 2b 3d 5a 6b 87 3c 6e f6 e5 3c
       -0.00041222572 0.041863192 0.016530681 0.028071608
000100 73 e5 e4 bc 8a 9d 0d bd c6 d0 e1 3c c0 70 e1 ba
       -0.027941441 -0.03457407 0.027565371 -0.001719974
000110 ac a8 89 bc 41 58 24 3d a6 ed 06 bd 43 7f 4b bd
       -0.016804062 0.040123228 -0.032941483 -0.049681913
000120 40 1d c3 ba 40 3b 9b ba 99 12 06 3d c6 5f 88 3c
       -0.0014886037 -0.0011843219 0.03273258 0.01664723
000130 62 e6 b0 3c 98 0c b7 bb 31 d3 06 3d 69 5c 45 3d
       0.02159423 -0.005586218 0.03291625 0.048183832
000140 46 1c a3 3c 28 96 5a bc 51 fd 1a 3d 60 dc 94 ba
       0.019910943 -0.013341464 0.037839238 -0.0011357181
000150 99 72 00 3d 9a d5 99 3c 8d 50 14 bd 66 be 8d 3c
       0.03135929 0.018778611 -0.03620963 0.017302703
000160 07 78 29 3d ca 4a 40 bd 3a 47 38 bd 4c 8f 36 3c
       0.041374233 -0.046946324 -0.044989802 0.011142563
000170 a0 4a 05 3b 66 a5 fc 3c 5a d9 3e bd 63 b6 41 bd
       0.002033867 0.030840587 -0.046594 -0.04729308
000180 42 7a 80 3c 07 19 04 3d d1 e1 01 3d 5d f9 48 bd
       0.015683297 0.03225043 0.031709496 -0.049065936
000190 11 4a 1d bd 0a d6 12 3c 31 3f 32 bd 69 eb 54 bc
       -0.038400713 0.008962164 -0.043517295 -0.012995579
0001a0 1f 2e a9 bc 09 0b 20 3d 78 93 8a 3c d2 5d 0e bd
       -0.020651875 0.039073024 0.016916022 -0.034757443
0001b0 42 fa 97 3c 0a df 25 3d b0 fe 11 bd fd 09 41 3d
       0.01855195 0.04049591 -0.03564328 0.047128666
0001c0 56 d9 02 3b c1 62 49 bc 78 c0 29 3d 3f be e7 bc
       0.0019965968 -0.012291611 0.041443318 -0.028288959
0001d0 b0 85 68 3c 59 15 d5 bb 56 e2 36 3d aa 75 e0 3c
       0.01419203 -0.006502789 0.044649445 0.027399857
0001e0 1e 05 03 bc 24 fa 1e bc fc 46 38 3d 6a 74 d4 bb
       -0.0079968255 -0.009703193 0.04498957 -0.006483604
0001f0 3e 0b 44 3d 9b 4d 18 3d 16 2b 9e 3b e3 48 43 bd
       0.047862284 0.037183385 0.0048269136 -0.047676932
000200 f4 f1 95 bc 9f 8c 18 bc 02 ab d5 3b e1 f7 09 bd
       -0.018303849 -0.00931087 0.00652063 -0.03368366
000210 ab 64 1c 3d cb 4d 9e 3c 56 7d 26 3c 69 e4 df bc
       0.038181942 0.019324204 0.010161718 -0.027330594
000220 1c 16 22 bd a6 2d f8 3c b6 0c 67 3b ee 39 e0 3c
       -0.039571866 0.030295204 0.003525538 0.027371373
000230 97 c6 1d bd 65 da ab 3c 48 84 2c 3d de c1 00 bd
       -0.03851947 0.020978162 0.04211834 -0.031434886
000240 50 a9 27 bd e3 9c dc bc db 34 9f bb 04 96 28 bd
       -0.040932953 -0.026930278 -0.004858596 -0.04115869
000250 b3 b5 ba bc 9a 49 38 3d da 7e ed 3c 0a b9 18 bd
       -0.022791719 0.044992067 0.028991152 -0.037285842
000260 80 9e 60 ba 17 7e 32 3d 60 f0 da bc b4 cc 1f 3c
       -0.000856854 0.04357728 -0.026725948 0.009753395
000270 01 51 23 3d 00 72 ee bb 80 63 42 3c 93 99 0b 3d
       0.039872173 -0.0072767735 0.011864543 0.034082007
000280 e7 3f e6 bc fa 2c bf bc 4c 9f 3f bc 20 a1 95 bc
       -0.028106643 -0.023336876 -0.011695694 -0.018265307
000290 30 2c 77 3b da ff 8c bc 00 2a 18 3c e0 d6 2b bd
       0.0037715547 -0.017211843 0.009287357 -0.041952968
0002a0 17 57 47 3d f9 50 1b 3d a0 e0 a3 bc f0 35 39 bd
       0.04866704 0.03791902 -0.02000457 -0.045217454
0002b0 a9 ad 29 3d 56 de 22 bd 10 27 48 bd a3 c2 45 bd
       0.04142538 -0.039762817 -0.048865378 -0.048281323
0002c0 1d 49 0c 3d 2e 89 aa 3c 00 8d 5c bc 1d 53 0a bd
       0.034249414 0.020817365 -0.013461351 -0.03377067
0002d0 8e b2 b5 3c 74 04 6f bc c7 6a 3a bd 8c 31 8d bc
       0.022179868 -0.014588464 -0.045511987 -0.01723554
0002e0 98 06 2b 3c 23 aa 35 3d 62 d9 ce 3c 00 3c 07 3c
       0.010438584 0.04435171 0.02525014 0.008254051
0002f0 1a 2f 32 bd 00 9a 37 bb 40 2e 9d bc b7 49 4c 3d
       -0.04350195 -0.0028015375 -0.019187093 0.049874987
000300 a0 08 95 bc f1 26 31 3d 9c b6 5e 3c 1a 68 03 bd
       -0.01819259 0.043250028 0.013593342 -0.0320817
000310 d0 5b fd 3b 17 1b 2d 3d 26 ad 83 3c d1 7e 0e 3d
       0.007731892 0.042262163 0.016073775 0.03478891
000320 41 59 68 3c f9 88 11 bc 1b 67 be bc 73 a9 98 3c
       0.014181436 -0.0088827545 -0.023242524 0.018635487
000330 76 b9 2e 3d f3 6d 5d bc cc 7d 10 bd 37 df 4f 3c
       0.042657338 -0.0135149835 -0.03527622 0.012687496
000340 25 4a dd 3c 07 ee 46 bd ae 0a 38 3d 22 d0 97 3b
       0.027012894 -0.048566844 0.04493206 0.0046329657
000350 5d 5a 28 3d b5 00 35 3d 75 72 8d 3c 06 bf 48 bc
       0.041101802 0.044190127 0.017266491 -0.012252575
000360 b2 5c 25 bc 75 a6 47 bd eb 61 35 3d 80 cb 73 3c
       -0.010092901 -0.04874273 0.044282835 0.014880061
000370 8b 62 db bc fd 61 51 bc 73 a3 25 3d 71 c7 3a bd
       -0.026780387 -0.01277971 0.04043908 -0.04560036
000380 29 df 12 bd 9f 73 81 3c f2 bc 3c bc fc 03 09 3d
       -0.035857353 0.015802203 -0.011519657 0.033451065
000390 66 28 b4 3b 38 bc a1 bc 33 23 84 3c 07 9a 3a 3d
       0.00549798 -0.01974307 0.016130066 0.04555705
0003a0 9d cc 20 3d f7 09 93 3c 73 eb e3 3c b6 a2 15 bd
       0.039257634 0.017949088 0.027822232 -0.036532126
0003b0 fe 07 31 3c bf 52 04 3d c7 13 2a bc 38 a4 47 bd
       0.010805128 0.032305475 -0.010380692 -0.048740596
0003c0 ae da c2 3c c6 31 29 3a 2f 08 59 3c 90 6b 36 3d
       0.023785915 0.0006454255 0.01324658 0.044536173
0003d0 bb 58 90 3b 8a 17 27 3c dd cd 59 bc c9 cf a7 3c
       0.0044051087 0.010198483 -0.013293711 0.020484822
0003e0 4c 3e 07 bd bf 3a a3 3c 4d fc bd bc 00 22 9b ba
       -0.033018395 0.019925473 -0.023191595 -0.0011835694
0003f0 e1 cf 24 3d 47 ff c9 bc 00 aa 14 bb 98 03 85 3b
       0.04023731 -0.024657859 -0.0022684336 0.0040592663

model/embedding_5/embedding_lookup f4 [5, 50]
000000 77 b2 8a bc 9b 3d 09 3b 6e 64 6f bd 21 22 08 3d
       -0.016930802 0.002094126 -0.058445387 0.033235673
000010 60 a7 36 3d 85 86 f9 bb f7 3b e8 bc 18 5d 5a 3c
       0.044593215 -0.007614913 -0.028348906 0.013327859
000020 a5 0c 0a bd 04 f6 87 3c ec be 6b 3d da 82 ae 3c
       -0.033703465 0.016596802 0.057555124 0.02130263
000030 78 65 99 3c 46 0a 87 3c c8 fd 83 3c 90 50 40 3d
       0.018725142 0.016484391 0.016112223 0.04695183
000040 92 8f a5 bc 44 50 31 bc 61 e5 19 3d 00 f6 c9 3c
       -0.020210061 -0.0108223595 0.03757227 0.024653435
000050 4c 98 56 3d 5b 97 17 3d 4e 64 13 3c f1 99 26 3d
       0.052391335 0.03700958 0.0089960825 0.040674154
000060 65 d5 fa bc 41 a7 91 bc 44 83 cf ba bc 8a 32 bd
       -0.030619333 -0.017779948 -0.0015831967 -0.04358934
000070 19 52 67 bc cf f4 2d 3d fc 9d 07 bd 34 0f c8 bb
       -0.014118695 0.042469796 -0.03310965 -0.006105328
000080 3a 01 95 3c 81 05 2a bd bf 5c 0b bb ae 82 92 3c
       0.018189061 -0.041509155 -0.0021264998 0.017884579
000090 00 9b d7 3c b8 b9 0a 3c fa 40 d9 bc d3 d7 fc bc
       0.026319027 0.00846713 -0.026520241 -0.030864632
0000a0 1e 80 fc 3c 2d a1 44 3d 98 f5 17 bd 87 3b 2c 3d
       0.03082281 0.04800527 -0.03709945 0.042048957
0000b0 51 d6 ae bb be 41 11 bd 3e 22 5c bc b2 33 61 bc
       -0.005335607 -0.035463087 -0.013435898 -0.013745235
0000c0 a0 3c 06 bd 5a e4 1f 3d 3d bd 3c 3d 31 ed 3a 3d
       -0.03277266 0.039036132 0.04607891 0.04563636
0000d0 70 39 1b bd 9d 0d 14 3d e8 8c ac bb 9c dc 51 3c
       -0.037896574 0.036145795 -0.005265821 0.012808945
0000e0 bd 24 42 3d e7 95 3f 3d 1a f0 95 bc aa 4a 0a bd
       0.047398318 0.046773817 -0.018302966 -0.03376261
0000f0 98 a1 f3 3b aa 66 44 bd 99 3e 20 3d 0c a0 72 3c
       0.007435035 -0.04794947 0.039122198 0.014808666
000100 e6 0d a0 3c 3d df 12 bd f3 6c 40 3d 26 3c e0 3c
       0.019537877 -0.035857428 0.046978902 0.027372431
000110 0e cc b3 3c 12 c0 d9 3c a2 92 92 3c 8d a3 38 bd
       0.021947887 0.026580844 0.017892186 -0.04507785
000120 9d 8b 02 bd 54 31 8e bc 5d fe 1a 3d 67 13 3a 3d
       -0.031871427 -0.017357506 0.037840236 0.04542866
000130 2d 27 cf bc 3a 3c 91 bc 49 b0 05 3d 18 9d 92 bb
       -0.025287235 -0.017728914 0.03263882 -0.0044742934
000140 e2 61 cd 3c d1 39 05 3d c6 72 02 bd 28 5f 2c 3c
       0.025071088 0.03252584 -0.031847738 0.010520734
000150 cd 5f 03 bd 22 a6 c8 3c b0 d4 9e 3b 1a 3f c2 bc
       -0.032073785 0.02449328 0.0048471317 -0.02371173
000160 18 9c f6 bb 82 d8 b1 3c 8d 6e 2a bd c7 64 f5 bc
       -0.007525932 0.021709684 -0.041609336 -0.029955281
000170 40 93 01 bc a9 1b 2b 3d 80 4a 06 3a 3a 46 c0 3c
       -0.007908642 0.041774426 0.00051227957 0.023470987
000180 9a f1 d6 bc d2 7b b2 3c 37 7a 4a 3d 34 9c 57 3c
       -0.026238251 0.021787558 0.04943296 0.0131598
000190 78 92 3c 3d 29 7b 2d 3c 01 8d 02 3d 99 0f 61 bc
       0.04603812 0.010588446 0.031872753 -0.013736629
0001a0 45 10 22 3d db 9d 9d 3b f4 72 4a 3d 6f 18 9d bc
       0.039566297 0.0048100776 0.049426034 -0.01917669
0001b0 8c 18 23 bc 73 5e 05 bd 95 68 71 3c 90 ef 06 bd
       -0.009954583 -0.032560777 0.014734407 -0.03294331
0001c0 0d 7e 83 bb 6e b6 a5 bc 2f 5b 1b bd c7 18 88 bb
       -0.004012829 -0.02022859 -0.037928756 -0.0041533443
0001d0 f6 39 e8 39 32 c4 14 3d 5a a8 6b bd 93 e0 e3 3c
       0.00044293673 0.03631992 -0.0575336 0.027817046
0001e0 d1 bc 2a 3d 82 19 eb 3c 82 f6 e5 3c dd 18 66 3d
       0.041683976 0.028698687 0.028071646 0.056176055
0001f0 a4 0d 36 bd 99 ee d4 bc ba 9f 44 b9 4b 62 a2 bc
       -0.044446602 -0.025992678 -0.0001875152 -0.01982226
000200 53 34 c5 3c 3d ea ec 3b 27 69 16 bd 8c 50 b6 3c
       0.024072802 0.007230072 -0.036721375 0.022255205
000210 60 6c 26 3d dc 36 d8 3c 60 5c 06 bc 48 30 c0 bb
       0.0406307 0.026393346 -0.008200735 -0.0058651306
000220 85 9b 4f 3d 25 24 21 bd 63 27 16 bd 0f 61 35 bd
       0.050685424 -0.03934111 -0.036658656 -0.044282015
000230 d5 23 b3 3c 60 6d 22 bc 40 2f f0 bc 79 3b 39 3d
       0.021867672 -0.009913772 -0.029319406 0.045222733
000240 7b e7 6e 3c f2 a2 32 3d e6 1c 1f bc e9 db d4 3c
       0.014581556 0.043612428 -0.00971148 0.025983768
000250 b1 a7 31 3d 73 62 00 3d 7d 26 82 bc b1 5f 9f bc
       0.043372814 0.03134389 -0.015887493 -0.019454809
000260 e8 6a 2b 3d 63 6e d4 bc 63 bb 89 3c 47 dd d5 3c
       0.04185 -0.025931543 0.016812986 0.02610649
000270 ce 62 18 3d 41 18 a3 bc cd 30 89 bc d6 f1 b9 bc
       0.037203602 -0.019909026 -0.016746903 -0.022698324
000280 86 a4 9a 3c 29 cd ba bc 9d 4c 1a 3d 1a ed 46 bd
       0.018877279 -0.022802906 0.03767072 -0.04856596
000290 b0 77 de 3c f6 2d 84 bc 44 02 22 3d 05 d7 82 3c
       0.02715668 -0.016135197 0.039552942 0.01597167
0002a0 38 3f 5d 3b 2c f7 d9 bc 8e a0 bf ba 1f 48 cb 3c
       0.0033759605 -0.026607119 -0.0014619993 0.024814663
0002b0 46 a9 c5 3c d2 49 52 3b ef 53 12 3d f4 10 cf 3c
       0.024128567 0.0032087457 0.035724577 0.025276639
0002c0 32 16 d4 bb 28 fb 80 bc f5 5c 1c bc 19 79 32 bd
       -0.0064723724 -0.01574476 -0.009543647 -0.04357252
0002d0 2c 80 ad ba d0 a3 d8 bc 3f d8 ae 3c 49 f4 46 bd
       -0.0013237051 -0.0264453 0.021343349 -0.048572812
0002e0 9f 19 6b bc 77 bb 30 3c 58 d2 3d 3d 26 a6 ce bb
       -0.01434937 0.010786883 0.046343178 -0.0063064275
0002f0 9b 18 4b bd 73 92 2b bd be 7c 2c bd 31 53 92 bc
       -0.049584012 -0.04188771 -0.04211115 -0.017861934
000300 b3 39 44 bc ff 86 7d 3c 83 f0 32 3d d9 0d 08 bd
       -0.011976647 0.01547408 0.0436864 -0.03321633
000310 d4 6c 13 3d 20 ad 0a 3d 2b 84 c3 bc 8e c0 d8 3c
       0.03599246 0.03385651 -0.023866734 0.026459005
000320 93 ac ac bc 19 e8 e9 bc cc a3 1b 3d 26 bb 16 3d
       -0.021078384 -0.028553056 0.037998006 0.036799572
000330 1e b3 16 3c 2b 62 58 3d d1 62 20 bd df 10 4f bb
       0.009197978 0.052827995 -0.03915674 -0.003159575
000340 0c 9a 2f bd c7 2d 27 bd ed 58 8f bc c8 41 b6 3c
       -0.04287152 -0.04081514 -0.017498458 0.022248164
000350 ce 26 19 bd fa 2c 8e bb e6 ce bd 3c cb 90 2b bd
       -0.037390523 -0.0043388577 0.023169946 -0.041886132
000360 4f 51 2c bd 4f fa f7 bc 84 ca 01 3d 17 dc 2d bd
       -0.04206973 -0.030270724 0.031687275 -0.042446222
000370 8e 25 d9 bb d4 9d 3a bc a6 a9 32 bd dd 3f 4f bb
       -0.0066267913 -0.011390168 -0.04361882 -0.003162376
000380 a5 0e c6 3b ab 2b c6 3c db 8f 6f 3c 65 6d 5f bd
       0.0060442262 0.024190744 0.0146217 -0.054547686
000390 09 0f 5f 3d 34 42 1e 3d 64 c0 c6 3c d8 8e 9c 3b
       0.054457698 0.038637355 0.02426166 0.0047777705
0003a0 88 26 62 3b e5 1f e2 bb c9 dd e7 3b c9 43 40 bd
       0.003450783 -0.006900775 0.0070759994 -0.046939645
0003b0 03 24 db bc 47 a7 a7 bc f4 5a fa bc 64 dc 32 bd
       -0.02675057 -0.020465506 -0.030560948 -0.043667212
0003c0 a2 1a 34 3c 14 63 0a bc 01 35 d7 bc 0f 70 29 bd
       0.010992678 -0.008446474 -0.026270391 -0.041366633
0003d0 43 86 21 3d 4c ad a0 3c fb ba 35 3c 51 62 ce 3c
       0.039434683 0.019613884 0.011091943 0.025193365
0003e0 39 88 40 3d ba 9e 16 bd
       0.047004912 -0.036772467

model/embedding_4/embedding_lookup f4 [5, 50]
000000 e5 69 9e bb bd 30 5c bc 1d f0 38 bd 0b 5e e5 3c
       -0.004834401 -0.0134393545 -0.045150865 0.027998945
000010 4b 2e 21 bd 42 f4 f0 3c 47 1a 8c bc 67 c4 a2 bb
       -0.03935079 0.029413346 -0.017102374 -0.0049672606
000020 ac 2d d4 bc 37 af e5 3c 48 23 e4 bc 13 a1 29 bd
       -0.025900684 0.02803765 -0.027848855 -0.041413378
000030 a4 de 2b 3d e5 62 f9 ba 25 ae 45 3c ae a9 0f bd
       0.041960374 -0.0019026665 0.012065445 -0.03507393
000040 2a cd 0c bd 8f 37 c2 3c 6d fc 3a bd 4a 4d c3 3c
       -0.034375347 0.023708133 -0.04565089 0.023840565
000050 e7 34 b7 bc fd f5 b6 bc 4f b4 e4 3c a7 bd 9f bb
       -0.022364093 -0.022334093 0.02791801 -0.0048749032
000060 83 14 e4 bc 2a 20 e1 3b 53 6b 81 bc ef 24 1a 3d
       -0.027841812 0.0068702893 -0.015798246 0.03763288
000070 30 8d 94 3c 3f ad 0b bd 5b c8 c0 bb 3e ea 2e bd
       0.01813373 -0.034100767 -0.0058832592 -0.04270386
000080 a4 e9 ce 3c d2 bd 5b bc 02 f7 1c bd e4 1b ce 3c
       0.025257893 -0.013411956 -0.038321503 0.025159784
000090 a8 68 a9 3c 69 d1 e7 bc 0a 36 01 3d d3 5d 32 3c
       0.020679787 -0.028298097 0.031545676 0.010886627
0000a0 1b 70 d1 3c 1a 90 36 3d 80 d8 77 bc b0 f9 6a 3c
       0.025566151 0.04457102 -0.015127301 0.014341757
0000b0 a6 62 15 bd 46 ca 02 bd bf 5a ef 3b e7 96 f8 bc
       -0.03647103 -0.031931184 0.007304519 -0.030345393
0000c0 1f b0 b7 bb f8 14 38 bd e2 e8 0d bb de fb 97 3c
       -0.005605712 -0.044941872 -0.0021653702 0.018552717
0000d0 85 12 42 bd 67 81 0f bd 96 93 e0 3c ad 01 dd bc
       -0.047380943 -0.035035517 0.027414124 -0.026978338
0000e0 03 c1 8b 3c d6 4c 1c 3d 8d ef 56 3c b1 ed 0e bd
       0.017059809 0.038159214 0.013118637 -0.03489465
0000f0 24 c0 d0 3c 64 96 0f 3d c3 ce a7 bc d8 8c 11 bd
       0.025482245 0.035055533 -0.020484334 -0.03553471
000100 be b3 29 bd 7a 66 00 3c 7b 03 b1 3c 09 b8 b5 3c
       -0.04143118 0.007836932 0.021608105 0.022182481
000110 da a2 3c 3d 04 5e 0f 3d 8c 31 28 bd 2a 7c 2a 3c
       0.046053745 0.03500177 -0.041062877 0.01040558
000120 6b 13 49 bb 58 f9 fe 3c 8a 9c 9a bc 89 83 62 3b
       -0.003068174 0.031124756 -0.018873472 0.0034563264
000130 01 fd 93 bc 5e ce d1 bc 68 08 4b bd c1 71 11 3d
       -0.018064978 -0.025611099 -0.049568564 0.035508875
000140 d0 d9 86 bc 2c c1 d9 3c 07 93 fd 3c a2 87 43 3d
       -0.016461283 0.02658137 0.030953897 0.04773677
000150 01 f2 15 3d 5c 74 a3 bb 75 50 46 3d 83 4b ea bc
       0.036607746 -0.0049882364 0.048416574 -0.02860046
000160 73 2d ef bc e4 c4 ea bc c2 f5 00 3d ec c2 e6 bc
       -0.029196477 -0.028658338 0.031484373 -0.028169118
000170 c5 bf a5 bc 1b 03 e6 bc 3e 9a e2 3c 1d c8 b6 bc
       -0.020233044 -0.028077653 0.027661439 -0.022312218
000180 57 87 9a 3c 77 93 e5 bc c1 5b 3a 3c a5 9d 3d 3d
       0.018863363 -0.028024418 0.011374415 0.04629292
000190 d4 d6 bd 3b 4c 3b 69 bb b9 1e 1d bd 90 aa d3 3b
       0.005793432 -0.0035588322 -0.038359378 0.0064595416
0001a0 56 a2 0d bd 86 f1 f5 bc 1b cc 21 bc 7a 2d f0 bc
       -0.034578644 -0.030022394 -0.009875323 -0.02931856
0001b0 d0 4f 40 bd d5 5a c5 bb f2 6e 05 3d f6 c8 27 3d
       -0.046951115 -0.006022791 0.03257651 0.040963136
0001c0 de 02 08 bd da f0 35 3d d7 a6 3d bd 01 8e 35 bb
       -0.03320586 0.044419147 -0.04630169 -0.002770305
0001d0 2f 60 25 bd e1 c4 48 3b 97 34 ca 3c 43 94 0d 3d
       -0.04037493 0.0030634927 0.02468328 0.03456522
0001e0 b4 b6 3f bd 7a 92 04 3d c8 6c 44 3d 83 9c 9e 3c
       -0.0468051 0.032366253 0.047955304 0.01936174
0001f0 30 14 29 bd e0 4c 9a bc 8a 37 3c 3c 8b a8 87 3c
       -0.041279018 -0.018835485 0.011487851 0.01655986
000200 08 3b 4f bd 20 38 11 bd 3d d8 4f 3c 8e 2f ef bb
       -0.050593406 -0.035453916 0.012685833 -0.00729937
000210 20 39 42 3d 2f 77 10 bd f5 58 b2 bc 92 d1 fa bc
       0.04741776 -0.035269912 -0.021770934 -0.030617509
000220 d0 1d 16 bd 78 28 c3 3a f0 bd f9 3c 97 5c 37 3d
       -0.036649525 0.001488938 0.030486077 0.044766035
000230 d7 88 9d 3b 77 2c 48 3d 9e 8e 90 3c 2a ce 53 bc
       0.0048075723 0.04887053 0.01764613 -0.012927571
000240 4c dd 49 3d ce 4d 17 bd 99 3f 99 3c f9 08 87 bc
       0.04928331 -0.036939435 0.018707084 -0.01648377
000250 e2 f4 69 bc 21 55 46 3b 26 39 06 3d 32 08 e0 3c
       -0.014279576 0.0030263143 0.032769345 0.027347658
000260 e5 0d ad bc 64 8c 01 bd 7e d7 10 3c 4c 88 4c 39
       -0.02112479 -0.031628028 0.00884044 0.0001950573
000270 2d d5 09 bd 2f c8 8c bc b1 47 0f 3c 5b 7f 27 3c
       -0.033650566 -0.017185299 0.00874512 0.010223235
000280 74 6c 55 3c 3c 68 8a bc d3 7f 46 3d a2 e8 14 3c
       0.0130263455 -0.016895406 0.048461746 0.009088667
000290 c0 a2 15 3d 91 91 23 3c b2 92 38 bd a4 05 07 3d
       0.036532164 0.009983436 -0.045061775 0.032964364
0002a0 e0 5f 3c bc dc 03 29 3d 62 2e 4c bd f2 e3 41 bd
       -0.011497468 0.041263446 -0.04984892 -0.047336526
0002b0 58 43 3c 3d 84 a2 1d 3d bd 8a 9c bc b3 26 17 3d
       0.04596266 0.038485065 -0.019109124 0.03690214
0002c0 0f b8 f0 bc 47 1a b1 3c 18 b7 f7 3c 67 15 09 bd
       -0.029384641 0.021618975 0.030238673 -0.033467676
0002d0 4f c3 3b bd 86 6e 78 bc eb e6 01 bd 15 d5 a2 bc
       -0.045840558 -0.01516307 -0.03171436 -0.019876996
0002e0 7d ef 57 bc 05 cb cf 3b 84 78 b2 3c 43 77 2c 3d
       -0.013179657 0.0063413405 0.021785982 0.042105924
0002f0 4d 2e 56 3c af b5 1c 3d e4 a1 9e bc 73 d5 3b 3d
       0.013072562 0.038259204 -0.019364305 0.045857858
000300 46 69 de 3c 67 18 c2 3c 30 e9 de bc fe 9b 2a 3c
       0.027149808 0.023693277 -0.027210802 0.010413168
000310 8c 15 9a 3c e3 53 eb bc c1 eb 01 bd e4 8d 1d bd
       0.018809102 -0.028726524 -0.031718973 -0.038465396
000320 5d 19 2a 3d e3 0c 2f 3d e1 9c 23 3d f0 88 e5 bc
       0.041528095 0.0427369 0.039944533 -0.028019398
000330 f3 d7 73 3b a6 5a ae bc 39 a0 0f 3c 1d c9 24 bc
       0.0037207573 -0.021283459 0.008766227 -0.010057715
000340 a5 21 12 3d bd bc fd bc d4 c2 59 bc 47 8c 05 bd
       0.035676617 -0.030973786 -0.01329108 -0.032604482
000350 43 7e 15 ba ec a0 ea bb 9d 4f 64 3d a0 4d 44 3c
       -0.00057027134 -0.0071602967 0.055739988 0.011981398
000360 90 86 43 bd c1 aa a9 3b 25 27 03 bd 89 fa 4d bd
       -0.04773575 0.005177826 -0.032019753 -0.050287757
000370 73 7e 0b bc 48 c0 15 bd ed ff 4b 3d 4f 92 2e bd
       -0.008514035 -0.036560327 0.049804617 -0.04262
000380 fc ab 0f bd 3e d0 2d bd 52 04 87 3b c0 39 34 bd
       -0.035076126 -0.042434923 0.004120388 -0.044000387
000390 54 5a 0d 3d f3 3a a3 bc 79 88 29 3d 4a 05 13 bd
       0.03450997 -0.01992557 0.041389916 -0.035893716
0003a0 75 7a 39 bd 67 b5 8d 3c 10 d6 37 3d a7 94 e0 3c
       -0.0452828 0.017298413 0.04488188 0.027414633
0003b0 a3 68 03 3d 63 e8 26 3d c8 0f b5 3c 2f 9f e1 3c
       0.03208221 0.040748965 0.022102252 0.027541725
0003c0 72 89 64 3c 0a 36 04 bc 51 05 ec 39 39 0b b7 bc
       0.013948785 -0.008069525 0.0004501739 -0.022344219
0003d0 47 a9 03 3d 60 62 23 bd ac 2b 07 bd c5 80 b0 bc
       0.032143857 -0.03988874 -0.033000633 -0.021545777
0003e0 4f bb dd bb 14 72 d1 bb
       -0.0067667137 -0.006391773

model/embedding_3/embedding_lookup f4 [3, 50]
000000 cf 89 ca bc 6c 5c 81 bc 23 d9 28 3d 3d d5 12 bd
       -0.024723915 -0.01579114 0.041222703 -0.03584789
000010 91 fb c2 3c c7 93 2c 3d cb f6 90 3c 9a 75 25 bd
       0.023801597 0.04213312 0.017695805 -0.040395357
000020 82 a2 88 bd a8 a5 34 3d 8a c2 f1 3c 7a 33 25 3c
       -0.06671621 0.044103295 0.029511709 0.010083074
000030 30 71 95 bc b7 2c 24 3d ff 51 2b bd c6 66 3a bd
       -0.018242449 0.040081706 -0.041826244 -0.04550817
000040 c6 98 ef bb de 5a 93 bc 58 ab 2e 3c e8 b6 b8 3c
       -0.007311913 -0.017987665 0.010660969 0.022548154
000050 91 df 31 3d 13 96 5b bc 72 c8 7b 3d 08 d5 a6 bc
       0.0434261 -0.01340248 0.061470456 -0.020365253
000060 d0 1e e1 bc 88 89 9b bc 57 06 86 bc af e4 4b 3c
       -0.027480513 -0.018986478 -0.016360445 0.012444659
000070 06 fa f7 bb 6f be 9f 3a 79 d4 4a 3d e4 1f fa 3c
       -0.007567647 0.0012187491 0.049519036 0.030532785
000080 37 15 17 3d e4 d4 4f 3c 7c 19 1e bd 16 bd 68 3c
       0.036885466 0.012685034 -0.038598523 0.014205238
000090 65 a2 38 3d fa b1 dd bc a0 f0 ec bc 0a 84 81 bb
       0.045076746 -0.027062405 -0.028923333 -0.003952508
0000a0 eb d1 16 bd 1b b6 e2 bc e8 0d d2 bc d4 55 ed bc
       -0.036821287 -0.027674725 -0.025641397 -0.02897159
0000b0 4e ee 2d 3d 5d 91 1c bd 4e 02 3b bd 72 1f 30 bd
       0.042463593 -0.038224567 -0.045656495 -0.04299874
0000c0 8a f1 f5 3c 89 36 1f bd fd 3f ab bc d7 e4 0f bc
       0.030022401 -0.03887037 -0.020904535 -0.008782587
0000d0 64 bb d7 bc 9a ed 8c bc fc c1 47 bc 19 a7 c6 3c
       -0.026334472 -0.017203141 -0.012192246 0.0242496
0000e0 b5 e0 25 3d d5 7e 17 3d 14 d0 89 bc 38 87 9e 3c
       0.0404975 0.03698619 -0.016822852 0.019351587
0000f0 1a 73 b3 bc 6c b9 a3 bc 4e b0 00 3d ab 5d 43 3d
       -0.02190547 -0.019985877 0.031418137 0.04769675
000100 d8 c9 cb 3c c0 3e 93 3c 27 b4 bb bc 3f f0 ac bc
       0.02487652 0.017974257 -0.022913052 -0.021110652
000110 9d 33 d3 bc 3b 20 2a bd ca 6d 67 bc c3 77 06 bd
       -0.025781447 -0.041534644 -0.014125297 -0.032829057
000120 38 67 54 3d 6c fb cf bc 21 bf 55 bd 30 77 c2 3c
       0.05185625 -0.025388442 -0.052184228 0.023738474
000130 86 ea 06 3d b3 b0 1f bd 78 0a ba 3b 2d 1b a3 3c
       0.032938503 -0.038986873 0.0056775175 0.01991042
000140 41 4b 59 3d 73 8b 8b bc ef f1 e7 bb 1b 15 29 bd
       0.053050283 -0.017034268 -0.0070784013 -0.041279893
000150 71 7f a0 bb 83 da 2d bd 1c b2 b8 3c 10 8a 1f bd
       -0.0048980047 -0.042444717 0.022545867 -0.038950026
000160 12 ee 30 3d d3 71 09 3d 34 84 0a bd f3 d2 58 bc
       0.04319579 0.033555817 -0.033817485 -0.013233888
000170 03 74 2d bd ba 58 33 bd 02 98 60 3c 2d ef d0 3a
       -0.042346966 -0.043785788 0.0137081165 0.001594042
000180 d9 fb a5 3c 6a ec 8f 3c d9 c2 06 bb f3 c9 35 bd
       0.020261692 0.017568786 -0.0020562916 -0.044382047
000190 07 d4 15 bb 95 cb 87 3b 47 ca 3e 3d 12 5e b6 bc
       -0.0022861974 0.004144142 0.046579625 -0.022261653
0001a0 59 40 97 3c 42 e6 4a 3d b7 d3 04 bd da 79 63 bd
       0.0184633 0.049535997 -0.03242847 -0.05553613
0001b0 c0 c9 51 bd 61 64 52 bd ae cf 9c bc 75 06 e3 bc
       -0.051217794 -0.05136526 -0.019141998 -0.02771304
0001c0 3c e2 47 3c 8d 26 0e bd f7 67 ed bc c0 72 bd bc
       0.012199935 -0.034704734 -0.028980238 -0.023126006
0001d0 4b 44 3b 3b 69 59 08 bd 3f 97 2d bd 07 79 04 bd
       0.0028574641 -0.033288393 -0.042380568 -0.032341983
0001e0 ba 20 1a 3a 0c 40 f3 bb 57 3c ac bb fa 23 95 3c
       0.00058795104 -0.0074234065 -0.0052562165 0.018205632
0001f0 d4 32 93 3c 3d fd 2e bb 28 90 de 3c 26 ad e9 3c
       0.017968573 -0.0026701235 0.027168348 0.028524946
000200 09 ee e8 bb c7 a9 8b bc ac 72 4c bc e6 54 0b 3d
       -0.007108454 -0.01704873 -0.012478512 0.034016512
000210 07 23 c4 3b 5f 01 2c 3d 5e 57 51 bd aa 1c f5 3b
       0.005985621 0.041993495 -0.05110871 0.0074802237
000220 c0 78 c4 bc 88 9a 01 bc 64 59 f1 bc fe de 3a bd
       -0.02398336 -0.007910378 -0.02946157 -0.04562282
000230 25 89 46 bd 29 5f 26 3d d1 bd 3a 3d b7 e6 62 3c
       -0.048470635 0.040618096 0.04559118 0.013848952
000240 63 f6 01 bd 81 92 11 bd f7 21 46 3d fd f2 bb 3c
       -0.031729113 -0.035540108 0.048372235 0.022943014
000250 42 bd 01 3d ab ea 47 bd
       0.03167463 -0.04880778

model/embedding_2/embedding_lookup f4 [2, 50]
000000 64 3a 99 bb 10 a9 26 bb 6c 58 f8 bc 45 d1 4b 3d
       -0.00467615 -0.002543036 -0.0303156 0.04976012
000010 1f ae ba ba 4d c5 4c 3c f6 22 8e bc a0 70 84 3c
       -0.0014242566 0.012498212 -0.017350655 0.016166985
000020 bc 42 03 3d a5 4e 1c bd 45 21 e6 3b b2 3a 81 3c
       0.032046065 -0.03816094 0.007023009 0.015775058
000030 d2 aa ef 3c 3c c2 5e bd 72 1e 4c bd 67 75 60 3b
       0.029256258 -0.054384455 -0.049833722 0.0034249665
000040 a0 80 39 bd 17 55 cb 3c c2 8f 0c 3d 39 eb dd ba
       -0.045288682 0.024820847 0.034316786 -0.0016931064
000050 ec c5 22 3d 5e 99 27 bd 0b f6 81 3c e3 44 d8 3c
       0.039739534 -0.040917747 0.015864393 0.026400035
000060 2b 0f 59 bc 86 c3 a1 3c 8f 91 0d bd f0 eb ce bc
       -0.013248245 0.019746553 -0.034562644 -0.025258988
000070 82 25 5a 3d 26 07 71 3c 8d a1 25 bd fe 77 44 bc
       0.053258426 0.014711177 -0.04043727 -0.011991499
000080 76 43 15 bd 7f 68 e7 bc 63 13 24 bd 3d 3e f0 bc
       -0.03644129 -0.02824807 -0.04005755 -0.029326553
000090 77 01 1a bc 02 b8 80 bc e3 28 01 3c 78 ae 02 bd
       -0.009399763 -0.015712742 0.007883283 -0.031904668
0000a0 80 9e 2d bd a4 a6 8a bd 4e a1 ab bc 18 81 20 3c
       -0.042387486 -0.067700654 -0.02095094 0.009796403
0000b0 ce 0c 9f bc 9c 03 cd bc 17 2d c1 3c d3 5d da 3c
       -0.019415285 -0.025026135 0.02358107 0.026656067
0000c0 3c 4f 9c bc 88 59 c9 39 53 43 f5 bb 23 06 e0 3b
       -0.01908075 0.00038404413 -0.0074848323 0.006836669
0000d0 53 b2 d5 3a 3e 28 29 3d a6 a9 5d 3c 34 7f e1 3c
       0.0016303755 0.041298144 0.013529217 0.027526475
0000e0 ea 2a a5 bb 96 47 0c 3d f7 0b ca 3c c1 af af bc
       -0.005040516 0.034247957 0.024663908 -0.02144611
0000f0 6b 9f 1c 3d 2d c8 ff 3b d9 ac b4 bc 62 3d 27 bd
       0.03823797 0.0078058452 -0.022055076 -0.040830024
000100 b9 58 ba bb ea 5c 48 bc 1b 9f 4b bb 90 a3 4a bd
       -0.005686846 -0.012229184 -0.0031070176 -0.04947239
000110 b5 9c a1 3c db d5 92 bc 88 f6 8d 3c 3c bb c1 3c
       0.019728044 -0.01792424 0.01732947 0.02364885
000120 de 98 1d 3d 69 25 35 3c 63 cb e0 3c ba 96 c5 3c
       0.038475864 0.011056283 0.027440732 0.024119724
000130 be dc c9 bc a0 50 cd 39 2d c2 40 3d fc 77 23 3d
       -0.02464139 0.00039160717 0.04706018 0.039909348
000140 de e7 0e 3d 08 6b b3 3c 2c 6e 16 3c 87 9d 8c bb
       0.034889095 0.021901622 0.00918154 -0.0042912397
000150 a8 61 57 3d 32 14 1b bd a9 27 1b 3d c1 12 d6 3c
       0.052583367 -0.037861057 0.03787962 0.02613199
000160 af f8 17 3d 9e 32 14 bc 1c 1d 3c 3d 59 7a 81 bd
       0.037102398 -0.009045271 0.0459262 -0.06322164
000170 7e 4e 03 bd ad a8 d9 ba d4 01 48 bd 08 e5 96 b9
       -0.032057278 -0.0016606055 -0.04882987 -0.0002878087
000180 21 6a 5f 3b 2e 56 41 3d 52 01 42 bd 40 cd 2f bd
       0.0034090357 0.047201328 -0.04736454 -0.04292035

model/dense/BiasAdd/ReadVariableOp f4 [128]
000000 0c 05 26 3c 07 fc 29 bc d6 9f da 3c fc a5 bb 3b
       0.010133039 -0.010375029 0.026687544 0.005726574
000010 a8 ff a6 3b 4e 98 86 3c 4e 7b 18 bc 3b ee b5 bc
       0.0050963946 0.016430046 -0.009306742 -0.022208324
000020 b6 91 1d 3b d9 be 0c bd 46 e5 68 3c 2e 36 8c 3b
       0.002404315 -0.034361694 0.014214819 0.0042789197
000030 5c ff 04 bc 0f 36 de bb 7e 80 bd ba 6f 23 2e bc
       -0.008117523 -0.0067813466 -0.0014457849 -0.010628565
000040 92 43 98 bb 1a 50 7a bc 8e 21 0b 3d 59 fe 06 bd
       -0.004646727 -0.015277887 0.033967547 -0.03295741
000050 5f 64 a8 bb 03 69 f9 bc d9 8d 2b 3c d1 c8 d1 bb
       -0.0051389183 -0.030445581 0.010470831 -0.006402113
000060 ae 6e e2 3c c7 45 9e 3c e7 de 1b 3d d6 db c5 bb
       0.027640667 0.019320382 0.038054373 -0.0060381694
000070 e2 be c0 3c 52 2a 75 bb 49 dc b8 3c 02 b4 02 3d
       0.02352852 -0.0037409258 0.022565978 0.03190995
000080 fc 93 0c bd 74 df 79 bc b3 bd 02 3c 07 d2 9c bc
       -0.034320816 -0.015251029 0.007979798 -0.019143118
000090 e3 c1 1c 3d e6 69 81 3c b5 0c 77 bc 3e 5c 1e 3c
       0.038270842 0.015797567 -0.015078713 0.009665547
0000a0 a7 d7 47 3c 4d ea 47 bc 88 63 31 bc f2 26 9d 3b
       0.012197412 -0.012201858 -0.010826953 0.0047959024
0000b0 18 26 18 bd db 2d 61 3c c4 89 22 bc 1e b8 c3 3b
       -0.037145704 0.013743843 -0.009920541 0.005972876
0000c0 3c b2 17 bd 56 d9 4a bb 5f 4c 1f bd 6c d7 da bc
       -0.037035212 -0.0030952296 -0.038891193 -0.02671405
0000d0 31 4d 29 bd a8 c2 5e 3c 8b 87 c9 bc e9 b1 19 bd
       -0.04133338 0.013596214 -0.024600765 -0.037523184
0000e0 5a d2 de 3c ff 86 f8 3b 5b e4 cb bc 25 28 43 3c
       0.027199913 0.007584452 -0.024889162 0.011911427
0000f0 6a 03 10 bc 7c 23 66 bc 58 58 4e 3c 0e b9 99 bd
       -0.0087898765 -0.014046546 0.012594305 -0.075059995
000100 15 6b 28 ba f0 6d 6b 3d 98 66 3b 3c 06 d8 89 3c
       -0.0006424648 0.05747789 0.0114380345 0.01682664
000110 d8 e7 8a 3c 2e c2 2e 3d 19 1a 2d bc e5 7d 31 3d
       0.016956255 0.042665653 -0.010565304 0.043332953
000120 e0 6c 9e bc b0 e2 86 bb 7d 8f 88 3c 80 a6 a5 bc
       -0.019339025 -0.0041163787 0.016669983 -0.020220995
000130 40 23 e8 bc 0b 8b d7 3c e4 5d 95 3b e3 6c 26 3d
       -0.028337121 0.026311418 0.004558312 0.040631186
000140 45 c4 38 3c 9a 91 26 3c 51 20 32 bd 92 5f bc bc
       0.011277263 0.01016655 -0.04348785 -0.02299479
000150 fc 75 1f bd ba f8 80 3d 45 ec b7 3b 96 16 1e 3b
       -0.038930878 0.06297441 0.0056128823 0.002412235
000160 3f 78 a7 bc a1 72 92 3c 00 e0 20 bd 7a c8 06 3d
       -0.02044308 0.017876925 -0.039276123 0.032906033
000170 21 cd d0 bb 0b 44 4d bb 37 61 25 3d 80 cd 97 bc
       -0.0063721095 -0.0031321074 0.040375914 -0.018530607
000180 c9 52 f4 3c 5e 0e 03 bd 2a a1 0c 3d 43 09 42 bb
       0.029824631 -0.031996123 0.034333386 -0.0029607571
000190 7d c8 9e bb 3f 56 0c bc fc a2 57 bb 5d 07 0a bc
       -0.0048456774 -0.008565485 -0.0032903543 -0.008424607
0001a0 d4 9c 2f bd cd 68 c3 3b 96 75 58 3d 91 2e cb bb
       -0.042874172 0.005963421 0.052846514 -0.0062006195
0001b0 a4 0b b5 bb b1 e4 df 3b 20 f8 a5 3b af 63 90 3b
       -0.0055250693 0.006832682 0.005064979 0.0044064145
0001c0 f5 83 98 39 e0 08 cd bc 9a 93 0c bc fd e6 0b bb
       0.00029090015 -0.025028646 -0.008580113 -0.0021347397
0001d0 5c ad a2 ba ba b1 cc bb 35 c7 12 bd 51 c5 44 3c
       -0.0012411284 -0.0062467726 -0.03583451 0.0120099345
0001e0 34 bc 72 3b c5 58 97 3b c8 e8 12 3c 62 b6 34 3d
       0.0037038447 0.0046187364 0.008966632 0.044119246
0001f0 87 e3 fe 3b ff 5d cb bc 25 b5 bf bb d4 1d b4 bb
       0.007778588 -0.024825094 -0.0058504515 -0.00549672

model/dense/MatMul1 f4 [128, 300]
000000 28 55 34 3d bc 29 03 3d 70 e8 b1 bb 3d 2c b9 bb
       0.044026524 0.032022223 -0.00542932 -0.0056510256
000010 e5 57 e6 3d 2e db c9 bd e9 11 ee bd 05 7f f0 3d
       0.11247233 -0.09856258 -0.1162451 0.11742977
000020 73 aa 01 3d a6 f4 78 3c d0 cd d5 3d 9a 6b a1 3b
       0.031656694 0.0151950475 0.10439646 0.004926157
000030 a1 a9 c9 3b d5 b5 09 bb 2c ff e2 3d e0 ad f2 bc
       0.0061542545 -0.0021012921 0.110838264 -0.029623926
000040 22 33 d6 3d 87 f2 28 3d 96 74 e5 3d c8 66 dd 3c
       0.104589716 0.041246917 0.11203878 0.027026549
000050 60 c5 72 bd c1 80 bb 3d cf b4 9b 3d b5 e9 de 3d
       -0.059270263 0.09155417 0.07602846 0.1088442
000060 6e 5f 62 bd 27 e6 17 bd 63 77 c3 bc 6b c2 8f 3d
       -0.05526679 -0.037084725 -0.023860639 0.07019504
000070 34 df cb bd 68 32 ed 3d 84 d8 07 bc 9e 7b a4 3d
       -0.09954682 0.1158188 -0.008291367 0.080313906
000080 4e 4c 3f 3d 16 3f 4d bd 59 92 c7 bd 97 8f f8 bc
       0.04670363 -0.05010899 -0.097447105 -0.030341906
000090 d9 be e7 bd 43 60 c4 bd 57 fd 27 3d 10 03 67 bd
       -0.11315698 -0.09588673 0.041013088 -0.056399405
0000a0 d0 21 ab bd be c3 92 3d 4c c9 ee 3d e4 21 c2 3d
       -0.083560586 0.07166241 0.11659488 0.094791204
0000b0 15 ca 14 bd a9 48 d2 bd 76 69 c9 bd 4b 90 0c bd
       -0.036325533 -0.10267765 -0.09834568 -0.034317296
0000c0 ea 85 f0 3d cb a2 3c bc 55 5f 8e bd 09 04 95 3d
       0.11744292 -0.011513422 -0.06951777 0.0727616
0000d0 34 a9 7d bd 3c 5b cd bb 0f 92 84 3d 32 f8 da bd
       -0.061928943 -0.0062669795 0.06473171 -0.10691871
0000e0 ba 52 a0 3d 75 12 d1 3c 3c 34 b7 bc 78 00 90 bd
       0.07828279 0.025521496 -0.022363774 -0.070313394
0000f0 22 67 3c bd 65 97 a4 3d 2f 94 ec 3d 89 aa 63 3d
       -0.045996793 0.08036689 0.11551701 0.055582557
000100 e7 c3 8e b9 d6 5b a3 3b 52 17 d9 3d 4e a3 b2 3b
       -0.0002723031 0.004985313 0.10600151 0.0054515963
000110 2c 61 a1 3c b8 1f 3c bd 31 5d 7c bc e5 12 3d bd
       0.019699655 -0.045928687 -0.015403078 -0.046160597
000120 e2 96 a7 3c 1b c1 9d bb 4d 6b 01 3c 01 17 bd 3d
       0.020457689 -0.0048142797 0.007899118 0.09232903
000130 da 62 8b 3d 12 8a 63 3d fe 12 ea bd 9c 96 6e 3d
       0.06805964 0.055551596 -0.11429404 0.0582491
000140 ef cc af 3c e7 57 a6 bc a5 bc 90 bd 3c ab e1 bb
       0.021460025 -0.020305587 -0.07067231 -0.006886868
000150 58 74 8c 3d d0 0e 0a bc 7c 71 87 3b e8 a7 2d bc
       0.06858128 -0.008426383 0.0041334014 -0.010599114
000160 b7 86 df bd e4 b7 8f 3c 4d f4 7b bd e8 80 ed 3d
       -0.10914367 0.01754374 -0.06151228 0.115968525
000170 a2 7d 8a 3d 07 97 b9 3d 81 41 07 bd d7 14 d6 3c
       0.06762244 0.09062009 -0.033021454 0.026132984
000180 b0 83 96 bd 38 1c 9c 3c af 5c d4 bd cc 40 9d bd
       -0.07349336 0.019056424 -0.103692405 -0.07678375
000190 eb 46 f0 bd 09 aa cd 3d 5f 07 bf bd 17 dd aa 3d
       -0.117322765 0.10042197 -0.09327578 0.08342951
0001a0 e0 5b 15 3d 13 99 5f bb ab 81 a8 bc ab a8 88 bd
       0.036464572 -0.003411834 -0.020569643 -0.06672796
0001b0 b4 b3 dc bd a1 5e 85 3c 85 ea bb bd 0b ac 7d 3d
       -0.10776463 0.016280474 -0.091755904 0.06193165
0001c0 90 89 cb bd 6a 7e 89 3c 9f 86 9a 3c a9 1b 96 3b
       -0.09938347 0.016783912 0.01886302 0.004580934
0001d0 0d 61 72 bc 99 37 0c 3d 97 96 cc bd a7 df 4d 3d
       -0.0147936465 0.03423271 -0.0998966 0.05026212
0001e0 3e 91 b2 3b f2 a5 b9 bd 26 70 95 3d 81 46 03 bd
       0.005449443 -0.09064855 0.07296781 -0.03204966
0001f0 ff 59 91 bd 8d 35 0c bd b1 7d b2 bd 92 33 46 3d
       -0.070972435 -0.034230758 -0.0871538 0.048389025
000200 d1 e6 09 bc 17 df d7 3c ca 16 85 3d 33 00 51 bc
       -0.008416847 0.026351495 0.06498487 -0.012756395
000210 36 7e 83 3d 6b 63 29 bc bb 85 99 bc cb 8c 96 3d
       0.06420557 -0.0103386445 -0.018740525 0.07351073
000220 30 aa df 3d c6 ed 1b bc 44 68 0e 3d 41 72 a3 3d
       0.109211326 -0.009517139 0.034767404 0.079807766
000230 68 36 a4 bd b0 e4 c2 3c c8 36 7f 3c a3 55 db bd
       -0.0801819 0.023790687 0.015577026 -0.10709693
000240 cf 99 72 3d ce 96 96 bc ad a1 e9 3d 30 45 85 bd
       0.059228715 -0.018382456 0.1140779 -0.06507337
000250 b8 0f a5 bd 6d 17 bf bd 4d b6 b5 bd 89 e1 84 3a
       -0.08059639 -0.0933064 -0.08872662 0.0010138015
000260 5a 09 13 bc ce 3a d0 bd 3e f3 3f 3d 89 3b 82 3d
       -0.008974398 -0.10167466 0.046862833 0.06359012
000270 b0 bd 2c 3d da 48 6e 3d 98 a5 b2 bd 98 b9 86 3d
       0.042173088 0.058174945 -0.08722991 0.06578368
000280 3e 94 2c 3d 0b ab 35 3d 41 3f 4f 3d fe db 52 3c
       0.042133562 0.044352572 0.050597433 0.012869833
000290 ac 68 ed bc 30 1c a2 3d 3a fd c0 bc 48 04 bf bc
       -0.028980576 0.079155326 -0.023558248 -0.023317471
0002a0 fd 71 c7 3d 44 07 26 39 a5 3f 9c 3d df 68 ac 3b
       0.097385384 0.000158337 0.07629327 0.005261525
0002b0 16 ab 63 3d d2 9b 19 3d 06 46 db bd 41 ad 75 bd
       0.055583082 0.037502117 -0.10706715 -0.05997968
0002c0 f9 9e 06 3d b1 75 16 bc 17 91 88 3d 24 1e c0 bc
       0.032866452 -0.009183333 0.06668299 -0.023451872
0002d0 93 5a 74 bb f7 35 52 bc 42 82 b2 bd fe aa 9e bd
       -0.0037285432 -0.012830249 -0.08716251 -0.07747458
0002e0 6e 07 d8 3d b0 d8 8d bd 97 93 69 bd 7d 31 85 3c
       0.10548292 -0.069260955 -0.05702552 0.01625895
0002f0 34 6d b0 bd 14 d4 c0 3d eb a0 b0 3d 67 56 c4 bd
       -0.08614579 0.09415451 0.08624443 -0.095867924
000300 99 9f 3f bd ea ed ff 3c 41 60 9a 3d ff 74 5d 3c
       -0.046783064 0.031241376 0.0753789 0.013516664
000310 d9 49 9b 3c 75 2c 2e 3d be 30 0b bd e5 ef 76 bd
       0.018956112 0.042522866 -0.03398203 -0.060287375
000320 e1 96 97 bd 5a f4 93 bc 60 de 72 3d dd 7e 50 3d
       -0.07401825 -0.018060852 0.059294105 0.050902236
000330 9d 33 a5 3d 5c a6 63 bd 3f eb 6b 3d cf c0 dd 3d
       0.08066485 -0.055578575 0.057597395 0.10827791
000340 4e 34 98 bc d2 3c 3a 3d 83 50 d2 bd 67 1a 1b bc
       -0.018579628 0.04546816 -0.10269263 -0.009466744
000350 d8 07 29 bd 5d 34 dd bd b3 80 c9 bd 19 10 50 bd
       -0.041267246 -0.10801003 -0.098390006 -0.050796602
000360 15 d7 bc 3c 0b 56 0e bd 9c 3b d5 3d b7 28 a4 bb
       0.023051778 -0.034750026 0.1041176 -0.0050097364
000370 2e 76 73 3d c0 90 06 3d 0f 2c ac 3d db 51 7c 3d
       0.059438877 0.032852888 0.08406841 0.0616015
000380 8a bd b1 bc f2 cf e8 3d f3 66 a8 3c b6 2a 29 bd
       -0.021696825 0.113677874 0.020556903 -0.041300498
000390 a0 13 d2 3d 69 e9 bf bc 7b 1c db bd eb f9 6c bd
       0.102576494 -0.023426728 -0.106987916 -0.057855528
0003a0 52 87 a1 3d 2b ed a3 3d 72 ba 6a 3d c2 83 cc bb
       0.078871384 0.080042206 0.057306714 -0.0062412927
0003b0 e7 42 a6 bd b7 fd 39 bd a5 92 eb 3d 77 28 88 3d
       -0.08118229 -0.045407977 0.115025796 0.06648343
0003c0 c1 61 72 3d 1c 1f 0c bd 1b 1d 04 bd 2e 2e 6a bb
       0.059175257 -0.034209356 -0.03225432 -0.0035733092
0003d0 15 99 ca bc a3 ad 1d bc ac 7d 9c bd 8b c7 d2 bd
       -0.024731198 -0.009623918 -0.076411575 -0.10291966
0003e0 89 9e 94 bd 10 ca ac 3d 40 3c d3 3d f8 10 87 bd
       -0.07256801 0.08436978 0.10314226 -0.065950334
0003f0 1f 5e 75 bd 8e 62 8a bd cc a5 eb bd af fc cc bd
       -0.059904214 -0.06757079 -0.115062326 -0.10009133

model/dense_1/MatMul f4 [64, 128]
000000 56 23 bd 3c 31 74 12 be 64 2f ff 3d 4d ef d9 bd
       0.023088139 -0.14302136 0.12460211 -0.10641346
000010 0a 14 c5 bd 11 8b eb 3d ec c0 1c be 97 c1 ab 3d
       -0.09622963 0.11501134 -0.15307969 0.08386534
000020 5d d1 4b 3d ea 31 11 be 62 76 89 bc cc 19 60 3d
       0.04976021 -0.14179197 -0.016780082 0.0547121
000030 79 6c 2b be a1 4d a4 bd 0b 49 23 be 62 d0 ce bd
       -0.16740598 -0.08022619 -0.15945832 -0.100983396
000040 1b ed 88 3d 49 a9 9b 3d de 1e 09 be 31 6b b4 3d
       0.06685849 0.07600648 -0.13390681 0.08809508
000050 85 f3 d7 3d 2a dc 57 3d 34 9b f0 bc 9a a7 03 be
       0.105444945 0.0527002 -0.029370882 -0.12856904
000060 b0 a7 22 be d9 fe ff bb 9c bc 34 bd 89 47 60 3d
       -0.1588428 -0.0078123626 -0.044125184 0.05475572
000070 06 ce 1f bd d2 8b 2a 3e c6 8e f8 bd e2 a9 65 bd
       -0.03901484 0.166549 -0.12136607 -0.056070216
000080 ce d4 2a 3e 3e 4d a9 3c 5d 1f b0 bd 26 1b 01 be
       0.16682741 0.020666715 -0.08599732 -0.12608013
000090 32 47 02 bd 24 af b3 bc 27 5f a2 3d a4 fd 35 bc
       -0.03180618 -0.0219341 0.07928305 -0.011107836
0000a0 d3 d5 e8 bc b2 9b 80 bd 7f ef 2b 3e aa a7 90 3d
       -0.028422272 -0.062796965 0.1679058 0.070632294
0000b0 09 96 aa 3d d2 77 10 3e 5e fd 0f 3d ee e5 7a 3d
       0.08329398 0.14108208 0.03515374 0.061254434
0000c0 c4 d7 f7 3c 90 a3 0e 3e b7 aa 69 bc 53 49 47 3d
       0.030254252 0.13929582 -0.014261893 0.04865391
0000d0 74 c0 5c 3b 19 ec 8f 3d 7e a4 29 be 33 0f c3 bd
       0.0033684047 0.07027454 -0.16566655 -0.095243834
0000e0 14 64 1e 3e 73 bb 21 be 65 ab 10 be f0 be e4 bd
       0.15467864 -0.15794162 -0.14127882 -0.11169231
0000f0 65 49 0c 3d 40 e0 9b 3c f7 b9 19 bd ab 82 e2 bd
       0.034249682 0.01902783 -0.037530866 -0.11060079
000100 11 95 b5 bd 79 34 15 3c 3a 3d da 3a 94 ff e9 3d
       -0.08866323 0.009106749 0.0016650327 0.11425701
000110 aa 71 bf 3d 6c da 07 3e 89 d6 a9 3c dd 47 ed bd
       0.093478516 0.13266915 0.020732181 -0.115859725
000120 c6 d0 a5 3d 3f 81 47 bd 8d 5a 27 be 7d 10 24 3e
       0.08096461 -0.048707243 -0.16343136 0.16021915
000130 8e 12 93 bd cd ba 9f 3c 30 fa e9 bd bd 3b 33 3e
       -0.071812734 0.019498253 -0.114246726 0.17503257
000140 18 bb d4 3c dd 57 c1 bd e4 2c f3 3d 16 dc 3c bb
       0.02596812 -0.09440587 0.118737966 -0.0028817705
000150 d6 e4 1c 3e 1a a9 8c bc b5 2b 88 bd d7 03 88 3d
       0.15321669 -0.017170478 -0.066489615 0.066413574
000160 89 bc 29 bd 3e 92 ef 3d c3 7d 3f bd 9c 81 d3 bb
       -0.041439567 0.11697815 -0.046750795 -0.0064546596
000170 8d c6 ef 3d 97 3d 26 3d 1a f9 6d 3c dc 73 32 3b
       0.117077924 0.04058608 0.0145247225 0.0027229702
000180 33 88 55 bd 2f 43 39 3d 51 6f 29 be 39 a5 d3 3d
       -0.052131843 0.045230087 -0.1654637 0.10334248
000190 95 ad ee 3d bc d8 a6 3d 1e f5 4d 3d 32 1f a0 bd
       0.11654202 0.081468076 0.05028259 -0.0781845
0001a0 5f c7 83 3d 03 2c d6 bc 69 86 43 bd 9b 15 2d be
       0.064345114 -0.026144033 -0.047735605 -0.16902773
0001b0 8a e4 2e be 00 e3 33 3d 0d 90 44 3d d0 67 71 3c
       -0.17079368 0.043917656 0.04798894 0.0147342235
0001c0 96 ff 64 3d bf 79 34 bd 09 59 c2 3d 2c 33 e1 3d
       0.05590781 -0.04406142 0.09489638 0.109960884
0001d0 ed df a5 3c b8 a0 eb 3c 86 a4 12 3e 35 b6 7b 3d
       0.020248378 0.02876316 0.14320573 0.061453063
0001e0 29 c7 2d be aa 13 57 3d 8c fa af 3d f6 34 06 3d
       -0.16970505 0.052508987 0.0859271 0.03276535
0001f0 d5 ee 20 3e 0b 8e 07 be da 1f 19 be a0 0b 26 3e
       0.15716107 -0.13237779 -0.14953557 0.16215372
000200 d2 9d d4 bd a7 37 f2 bc 21 bb de 3d f8 a6 19 be
       -0.10381664 -0.029567553 0.10875536 -0.150051
000210 5e 2b b8 bc 0f de 14 be 54 7e e5 3d 75 60 4a 3d
       -0.022481617 -0.14537834 0.11205736 0.049408395
000220 78 00 7e 3d b8 e4 ae 3d 2f 12 cc 3c 10 f1 08 3e
       0.062012166 0.085397184 0.024911014 0.13373208
000230 c3 41 2b 3e d8 71 13 be 4a b2 eb 3d 5a f6 9c 3d
       0.16724305 -0.14398897 0.11508615 0.07664175
000240 f5 61 04 bd bb 9c 2b 3e d5 79 2d 3d 00 35 09 be
       -0.03231998 0.16759007 0.042352516 -0.13399124
000250 71 a6 bd bc 8e 85 8d bc ea a7 82 3b 6c 1c a8 bd
       -0.023150655 -0.017275598 0.003987302 -0.08208546
000260 55 1d c8 3c 3d b0 28 bc a0 c0 ab bc 5d f9 b4 3d
       0.02442805 -0.010295925 -0.020965874 0.08836625
000270 a0 7d 4b 3c f8 f3 b6 3d d0 38 e2 bd 9a 77 30 3e
       0.012420088 0.08933252 -0.110459924 0.17233124
000280 87 54 db 3c b5 63 e3 3d 4b 3a 5d bc 9f 18 78 bd
       0.026773704 0.11103002 -0.013502668 -0.060570356
000290 17 9a e8 bd 79 9a 21 be 2c 57 a9 bd f5 10 24 3d
       -0.11357515 -0.15781583 -0.0826858 0.040055234
0002a0 fd c1 9d 3d 2c aa b5 bd 1d 4e 27 be 9a 2c 27 3c
       0.07703016 -0.08870348 -0.16338392 0.010203505
0002b0 41 b4 17 3e 5f 4d 0b 3e bb 0f ac bd 11 a4 f3 bd
       0.14814855 0.13603733 -0.08401438 -0.118965276
0002c0 66 2f af 3d a9 26 f5 3c 77 25 2f be 0e 40 0a bd
       0.085539624 0.029925661 -0.17104135 -0.033752494
0002d0 35 a1 03 3e a7 31 e9 bd e8 62 32 be 4d ef 1f be
       0.12854464 -0.113864236 -0.17420542 -0.1561863
0002e0 36 75 a1 3d 3b 7d fb bd 4b 85 da bc c5 f4 94 bc
       0.07883684 -0.12279745 -0.026674887 -0.018183121
0002f0 bd 1d 30 be 3e 52 81 bd 31 d1 22 3d 31 4a 13 3e
       -0.17198844 -0.063145146 0.03975028 0.1438377
000300 31 3a ba bd 44 bd 63 bd 73 05 c9 ba d3 94 6c 3d
       -0.090931304 -0.05560042 -0.0015336707 0.057759117
000310 a6 a9 35 bc b7 cb 0f be f4 f3 25 3e 35 b2 26 3e
       -0.011087811 -0.14042555 0.16206342 0.16278918
000320 e2 bd 50 bd af f1 94 3d 25 ee e0 3d 6b f0 e9 3d
       -0.050962336 0.0727266 0.109829225 0.11422809
000330 1b 73 32 3b 56 5c 28 3e 22 b1 11 3e d4 5e a5 3d
       0.0027229253 0.16441473 0.14227727 0.08074728
000340 47 5c 0b be cc 77 ee bd 8b 39 d3 bd f8 dd 0e 3d
       -0.1360942 -0.11643943 -0.1031371 0.034879655
000350 d9 96 ec bd 90 c1 45 3d 14 0e 09 3e bd c9 32 3e
       -0.115522094 0.0482803 0.13384277 0.1745977
000360 21 bf 7c bd 38 86 9f 3d d0 11 62 bd 3a 8a a3 bd
       -0.061705712 0.07789272 -0.05519277 -0.07985349
000370 23 06 32 bd a2 a0 23 3e 51 c5 d2 3d d0 d0 9f 3d
       -0.043462884 0.15979245 0.10291541 0.078035
000380 3e 69 c6 3d 4e 86 c2 bd 76 57 09 3e f3 15 88 bd
       0.09688042 -0.09498273 0.1341227 -0.066448115
000390 10 4d 32 be e5 c7 2f bd 67 fc 12 3e 5b bb c8 bc
       -0.1741221 -0.042915244 0.14354096 -0.0245034
0003a0 73 7c 4f bd 82 4d 0e be 0f cd 2a be c8 a6 9b 3d
       -0.050655793 -0.13896754 -0.16679786 0.076001704
0003b0 f7 6a 78 bc 64 1c 44 bd 4b 08 01 be 5d db 0b be
       -0.015162221 -0.047878638 -0.1260082 -0.13657899
0003c0 12 d6 6b 3d aa a4 4b 3c dc e1 32 bd 4f 7b eb 3d
       0.0575772 0.012429396 -0.043672428 0.114981286
0003d0 eb 3c 0f bd 77 34 79 3d b8 99 16 3d a7 66 b2 3d
       -0.034970205 0.06084105 0.03676769 0.08710986
0003e0 84 d9 04 be 3a e5 84 bb 2e 04 49 3d 0d 14 00 be
       -0.129736 -0.0040556462 0.04907625 -0.12507649
0003f0 f3 83 b5 bc 99 aa e4 bc 8c 98 25 be be d5 d8 bd
       -0.022157645 -0.027913379 -0.16171473 -0.10587643
